{
  "format": "graph-model",
  "generatedBy": "<https://github.com/ybkscht/EfficientPose>",
  "convertedBy": "<https://github.com/vladmandic>",
  "signature":
  {
    "inputs": {
      "input_res1": { "name": "input_res1", "dtype": "DT_FLOAT", "tensorShape":{"dim":[{"size":"1"},{"size":"600"},{"size":"600"},{"size":"3"}]} }
    },
    "outputs":
    {
      "upscaled_confs/BiasAdd:0": { "name": "upscaled_confs/BiasAdd:0", "dtype": "DT_FLOAT", "tensorShape":{"dim":[{"size":"1"},{"size":"-1"},{"size":"-1"},{"size":"16"}]} }
    }
},
  "modelTopology":
  {
      "node":
      [
          {"name":"upscaled_confs/strided_slice/stack","op":"Const","attr":{"dtype":{"type":"DT_INT32"},"value":{"tensor":{"dtype":"DT_INT32","tensorShape":{"dim":[{"size":"1"}]}}}}},
          {"name":"upscaled_confs/strided_slice/stack_1","op":"Const","attr":{"value":{"tensor":{"dtype":"DT_INT32","tensorShape":{"dim":[{"size":"1"}]}}},"dtype":{"type":"DT_INT32"}}},
          {"name":"upscaled_confs/strided_slice/stack_2","op":"Const","attr":{"value":{"tensor":{"dtype":"DT_INT32","tensorShape":{"dim":[{"size":"1"}]}}},"dtype":{"type":"DT_INT32"}}},
          {"name":"upscaled_confs/strided_slice_1/stack","op":"Const","attr":{"dtype":{"type":"DT_INT32"},"value":{"tensor":{"dtype":"DT_INT32","tensorShape":{"dim":[{"size":"1"}]}}}}},
          {"name":"upscaled_confs/strided_slice_1/stack_1","op":"Const","attr":{"value":{"tensor":{"dtype":"DT_INT32","tensorShape":{"dim":[{"size":"1"}]}}},"dtype":{"type":"DT_INT32"}}},
          {"name":"upscaled_confs/strided_slice_1/stack_2","op":"Const","attr":{"dtype":{"type":"DT_INT32"},"value":{"tensor":{"dtype":"DT_INT32","tensorShape":{"dim":[{"size":"1"}]}}}}},
          {"name":"upscaled_confs/mul/y","op":"Const","attr":{"dtype":{"type":"DT_INT32"},"value":{"tensor":{"dtype":"DT_INT32","tensorShape":{}}}}},
          {"name":"upscaled_confs/strided_slice_2/stack","op":"Const","attr":{"value":{"tensor":{"dtype":"DT_INT32","tensorShape":{"dim":[{"size":"1"}]}}},"dtype":{"type":"DT_INT32"}}},
          {"name":"upscaled_confs/strided_slice_2/stack_1","op":"Const","attr":{"value":{"tensor":{"dtype":"DT_INT32","tensorShape":{"dim":[{"size":"1"}]}}},"dtype":{"type":"DT_INT32"}}},
          {"name":"upscaled_confs/strided_slice_2/stack_2","op":"Const","attr":{"value":{"tensor":{"dtype":"DT_INT32","tensorShape":{"dim":[{"size":"1"}]}}},"dtype":{"type":"DT_INT32"}}},
          {"name":"upscaled_confs/mul_1/y","op":"Const","attr":{"value":{"tensor":{"dtype":"DT_INT32","tensorShape":{}}},"dtype":{"type":"DT_INT32"}}},
          {"name":"upscaled_confs/stack/3","op":"Const","attr":{"value":{"tensor":{"dtype":"DT_INT32","tensorShape":{}}},"dtype":{"type":"DT_INT32"}}},
          {"name":"upscaled_confs/kernel","op":"Const","attr":{"dtype":{"type":"DT_FLOAT"},"value":{"tensor":{"dtype":"DT_FLOAT","tensorShape":{"dim":[{"size":"4"},{"size":"4"},{"size":"16"},{"size":"16"}]}}}}},
          {"name":"upscaled_deconv2/strided_slice/stack","op":"Const","attr":{"value":{"tensor":{"dtype":"DT_INT32","tensorShape":{"dim":[{"size":"1"}]}}},"dtype":{"type":"DT_INT32"}}},
          {"name":"upscaled_deconv2/strided_slice/stack_1","op":"Const","attr":{"value":{"tensor":{"dtype":"DT_INT32","tensorShape":{"dim":[{"size":"1"}]}}},"dtype":{"type":"DT_INT32"}}},
          {"name":"upscaled_deconv2/strided_slice/stack_2","op":"Const","attr":{"value":{"tensor":{"dtype":"DT_INT32","tensorShape":{"dim":[{"size":"1"}]}}},"dtype":{"type":"DT_INT32"}}},
          {"name":"upscaled_deconv2/strided_slice_1/stack","op":"Const","attr":{"dtype":{"type":"DT_INT32"},"value":{"tensor":{"dtype":"DT_INT32","tensorShape":{"dim":[{"size":"1"}]}}}}},
          {"name":"upscaled_deconv2/strided_slice_1/stack_1","op":"Const","attr":{"value":{"tensor":{"dtype":"DT_INT32","tensorShape":{"dim":[{"size":"1"}]}}},"dtype":{"type":"DT_INT32"}}},
          {"name":"upscaled_deconv2/strided_slice_1/stack_2","op":"Const","attr":{"value":{"tensor":{"dtype":"DT_INT32","tensorShape":{"dim":[{"size":"1"}]}}},"dtype":{"type":"DT_INT32"}}},
          {"name":"upscaled_deconv2/mul/y","op":"Const","attr":{"dtype":{"type":"DT_INT32"},"value":{"tensor":{"dtype":"DT_INT32","tensorShape":{}}}}},
          {"name":"upscaled_deconv2/strided_slice_2/stack","op":"Const","attr":{"dtype":{"type":"DT_INT32"},"value":{"tensor":{"dtype":"DT_INT32","tensorShape":{"dim":[{"size":"1"}]}}}}},
          {"name":"upscaled_deconv2/strided_slice_2/stack_1","op":"Const","attr":{"value":{"tensor":{"dtype":"DT_INT32","tensorShape":{"dim":[{"size":"1"}]}}},"dtype":{"type":"DT_INT32"}}},
          {"name":"upscaled_deconv2/strided_slice_2/stack_2","op":"Const","attr":{"value":{"tensor":{"dtype":"DT_INT32","tensorShape":{"dim":[{"size":"1"}]}}},"dtype":{"type":"DT_INT32"}}},
          {"name":"upscaled_deconv2/mul_1/y","op":"Const","attr":{"value":{"tensor":{"dtype":"DT_INT32","tensorShape":{}}},"dtype":{"type":"DT_INT32"}}},
          {"name":"upscaled_deconv2/stack/3","op":"Const","attr":{"dtype":{"type":"DT_INT32"},"value":{"tensor":{"dtype":"DT_INT32","tensorShape":{}}}}},
          {"name":"upscaled_deconv2/kernel","op":"Const","attr":{"dtype":{"type":"DT_FLOAT"},"value":{"tensor":{"dtype":"DT_FLOAT","tensorShape":{"dim":[{"size":"4"},{"size":"4"},{"size":"16"},{"size":"16"}]}}}}},
          {"name":"upscaled_deconv1/strided_slice/stack","op":"Const","attr":{"value":{"tensor":{"dtype":"DT_INT32","tensorShape":{"dim":[{"size":"1"}]}}},"dtype":{"type":"DT_INT32"}}},
          {"name":"upscaled_deconv1/strided_slice/stack_1","op":"Const","attr":{"dtype":{"type":"DT_INT32"},"value":{"tensor":{"dtype":"DT_INT32","tensorShape":{"dim":[{"size":"1"}]}}}}},
          {"name":"upscaled_deconv1/strided_slice/stack_2","op":"Const","attr":{"dtype":{"type":"DT_INT32"},"value":{"tensor":{"dtype":"DT_INT32","tensorShape":{"dim":[{"size":"1"}]}}}}},
          {"name":"upscaled_deconv1/strided_slice_1/stack","op":"Const","attr":{"dtype":{"type":"DT_INT32"},"value":{"tensor":{"dtype":"DT_INT32","tensorShape":{"dim":[{"size":"1"}]}}}}},
          {"name":"upscaled_deconv1/strided_slice_1/stack_1","op":"Const","attr":{"value":{"tensor":{"dtype":"DT_INT32","tensorShape":{"dim":[{"size":"1"}]}}},"dtype":{"type":"DT_INT32"}}},
          {"name":"upscaled_deconv1/strided_slice_1/stack_2","op":"Const","attr":{"value":{"tensor":{"dtype":"DT_INT32","tensorShape":{"dim":[{"size":"1"}]}}},"dtype":{"type":"DT_INT32"}}},
          {"name":"upscaled_deconv1/mul/y","op":"Const","attr":{"dtype":{"type":"DT_INT32"},"value":{"tensor":{"dtype":"DT_INT32","tensorShape":{}}}}},
          {"name":"upscaled_deconv1/strided_slice_2/stack","op":"Const","attr":{"value":{"tensor":{"dtype":"DT_INT32","tensorShape":{"dim":[{"size":"1"}]}}},"dtype":{"type":"DT_INT32"}}},
          {"name":"upscaled_deconv1/strided_slice_2/stack_1","op":"Const","attr":{"value":{"tensor":{"dtype":"DT_INT32","tensorShape":{"dim":[{"size":"1"}]}}},"dtype":{"type":"DT_INT32"}}},
          {"name":"upscaled_deconv1/strided_slice_2/stack_2","op":"Const","attr":{"value":{"tensor":{"dtype":"DT_INT32","tensorShape":{"dim":[{"size":"1"}]}}},"dtype":{"type":"DT_INT32"}}},
          {"name":"upscaled_deconv1/mul_1/y","op":"Const","attr":{"value":{"tensor":{"dtype":"DT_INT32","tensorShape":{}}},"dtype":{"type":"DT_INT32"}}},
          {"name":"upscaled_deconv1/stack/3","op":"Const","attr":{"value":{"tensor":{"dtype":"DT_INT32","tensorShape":{}}},"dtype":{"type":"DT_INT32"}}},
          {"name":"upscaled_deconv1/kernel","op":"Const","attr":{"dtype":{"type":"DT_FLOAT"},"value":{"tensor":{"dtype":"DT_FLOAT","tensorShape":{"dim":[{"size":"4"},{"size":"4"},{"size":"16"},{"size":"16"}]}}}}},
          {"name":"pass3_block4_mbconv3_detection2_se_se_squeeze_eswish/mul/x","op":"Const","attr":{"value":{"tensor":{"dtype":"DT_FLOAT","tensorShape":{}}},"dtype":{"type":"DT_FLOAT"}}},
          {"name":"pass3_block4_mbconv3_detection2_se_se_squeeze_lambda/Mean/reduction_indices","op":"Const","attr":{"value":{"tensor":{"dtype":"DT_INT32","tensorShape":{"dim":[{"size":"2"}]}}},"dtype":{"type":"DT_INT32"}}},
          {"name":"pass3_block4_mbconv3_detection2_se_se_squeeze_conv/kernel","op":"Const","attr":{"value":{"tensor":{"dtype":"DT_FLOAT","tensorShape":{"dim":[{"size":"1"},{"size":"1"},{"size":"480"},{"size":"20"}]}}},"dtype":{"type":"DT_FLOAT"}}},
          {"name":"pass3_block4_mbconv3_detection2_se_se_squeeze_conv/bias","op":"Const","attr":{"value":{"tensor":{"dtype":"DT_FLOAT","tensorShape":{"dim":[{"size":"20"}]}}},"dtype":{"type":"DT_FLOAT"}}},
          {"name":"pass3_block4_mbconv3_detection2_se_se_excite_conv/kernel","op":"Const","attr":{"dtype":{"type":"DT_FLOAT"},"value":{"tensor":{"dtype":"DT_FLOAT","tensorShape":{"dim":[{"size":"1"},{"size":"1"},{"size":"20"},{"size":"480"}]}}}}},
          {"name":"pass3_block4_mbconv3_detection2_se_se_excite_conv/bias","op":"Const","attr":{"value":{"tensor":{"dtype":"DT_FLOAT","tensorShape":{"dim":[{"size":"480"}]}}},"dtype":{"type":"DT_FLOAT"}}},
          {"name":"pass3_block4_mbconv3_detection2_dconv1_eswish/mul/x","op":"Const","attr":{"dtype":{"type":"DT_FLOAT"},"value":{"tensor":{"dtype":"DT_FLOAT","tensorShape":{}}}}},
          {"name":"pass3_block4_mbconv3_detection2_conv1_eswish/mul/x","op":"Const","attr":{"value":{"tensor":{"dtype":"DT_FLOAT","tensorShape":{}}},"dtype":{"type":"DT_FLOAT"}}},
          {"name":"pass3_block4_mbconv2_detection2_se_se_squeeze_eswish/mul/x","op":"Const","attr":{"dtype":{"type":"DT_FLOAT"},"value":{"tensor":{"dtype":"DT_FLOAT","tensorShape":{}}}}},
          {"name":"pass3_block4_mbconv2_detection2_se_se_squeeze_lambda/Mean/reduction_indices","op":"Const","attr":{"dtype":{"type":"DT_INT32"},"value":{"tensor":{"dtype":"DT_INT32","tensorShape":{"dim":[{"size":"2"}]}}}}},
          {"name":"pass3_block4_mbconv2_detection2_se_se_squeeze_conv/kernel","op":"Const","attr":{"value":{"tensor":{"dtype":"DT_FLOAT","tensorShape":{"dim":[{"size":"1"},{"size":"1"},{"size":"480"},{"size":"20"}]}}},"dtype":{"type":"DT_FLOAT"}}},
          {"name":"pass3_block4_mbconv2_detection2_se_se_squeeze_conv/bias","op":"Const","attr":{"value":{"tensor":{"dtype":"DT_FLOAT","tensorShape":{"dim":[{"size":"20"}]}}},"dtype":{"type":"DT_FLOAT"}}},
          {"name":"pass3_block4_mbconv2_detection2_se_se_excite_conv/kernel","op":"Const","attr":{"value":{"tensor":{"dtype":"DT_FLOAT","tensorShape":{"dim":[{"size":"1"},{"size":"1"},{"size":"20"},{"size":"480"}]}}},"dtype":{"type":"DT_FLOAT"}}},
          {"name":"pass3_block4_mbconv2_detection2_se_se_excite_conv/bias","op":"Const","attr":{"value":{"tensor":{"dtype":"DT_FLOAT","tensorShape":{"dim":[{"size":"480"}]}}},"dtype":{"type":"DT_FLOAT"}}},
          {"name":"pass3_block4_mbconv2_detection2_dconv1_eswish/mul/x","op":"Const","attr":{"dtype":{"type":"DT_FLOAT"},"value":{"tensor":{"dtype":"DT_FLOAT","tensorShape":{}}}}},
          {"name":"pass3_block4_mbconv2_detection2_conv1_eswish/mul/x","op":"Const","attr":{"value":{"tensor":{"dtype":"DT_FLOAT","tensorShape":{}}},"dtype":{"type":"DT_FLOAT"}}},
          {"name":"pass3_block4_mbconv1_detection2_se_se_squeeze_eswish/mul/x","op":"Const","attr":{"dtype":{"type":"DT_FLOAT"},"value":{"tensor":{"dtype":"DT_FLOAT","tensorShape":{}}}}},
          {"name":"pass3_block4_mbconv1_detection2_se_se_squeeze_lambda/Mean/reduction_indices","op":"Const","attr":{"value":{"tensor":{"dtype":"DT_INT32","tensorShape":{"dim":[{"size":"2"}]}}},"dtype":{"type":"DT_INT32"}}},
          {"name":"pass3_block4_mbconv1_detection2_se_se_squeeze_conv/kernel","op":"Const","attr":{"dtype":{"type":"DT_FLOAT"},"value":{"tensor":{"dtype":"DT_FLOAT","tensorShape":{"dim":[{"size":"1"},{"size":"1"},{"size":"480"},{"size":"20"}]}}}}},
          {"name":"pass3_block4_mbconv1_detection2_se_se_squeeze_conv/bias","op":"Const","attr":{"dtype":{"type":"DT_FLOAT"},"value":{"tensor":{"dtype":"DT_FLOAT","tensorShape":{"dim":[{"size":"20"}]}}}}},
          {"name":"pass3_block4_mbconv1_detection2_se_se_excite_conv/kernel","op":"Const","attr":{"value":{"tensor":{"dtype":"DT_FLOAT","tensorShape":{"dim":[{"size":"1"},{"size":"1"},{"size":"20"},{"size":"480"}]}}},"dtype":{"type":"DT_FLOAT"}}},
          {"name":"pass3_block4_mbconv1_detection2_se_se_excite_conv/bias","op":"Const","attr":{"value":{"tensor":{"dtype":"DT_FLOAT","tensorShape":{"dim":[{"size":"480"}]}}},"dtype":{"type":"DT_FLOAT"}}},
          {"name":"pass3_block4_mbconv1_detection2_dconv1_eswish/mul/x","op":"Const","attr":{"dtype":{"type":"DT_FLOAT"},"value":{"tensor":{"dtype":"DT_FLOAT","tensorShape":{}}}}},
          {"name":"pass3_block4_mbconv1_detection2_conv1_eswish/mul/x","op":"Const","attr":{"value":{"tensor":{"dtype":"DT_FLOAT","tensorShape":{}}},"dtype":{"type":"DT_FLOAT"}}},
          {"name":"pass3_block4_mbconv2_detection2_dense/concat/axis","op":"Const","attr":{"dtype":{"type":"DT_INT32"},"value":{"tensor":{"dtype":"DT_INT32","tensorShape":{}}}}},
          {"name":"pass3_block4_mbconv3_detection2_dense/concat/axis","op":"Const","attr":{"value":{"tensor":{"dtype":"DT_INT32","tensorShape":{}}},"dtype":{"type":"DT_INT32"}}},
          {"name":"pass3_block3_mbconv3_detection2_se_se_squeeze_eswish/mul/x","op":"Const","attr":{"value":{"tensor":{"dtype":"DT_FLOAT","tensorShape":{}}},"dtype":{"type":"DT_FLOAT"}}},
          {"name":"pass3_block3_mbconv3_detection2_se_se_squeeze_lambda/Mean/reduction_indices","op":"Const","attr":{"value":{"tensor":{"dtype":"DT_INT32","tensorShape":{"dim":[{"size":"2"}]}}},"dtype":{"type":"DT_INT32"}}},
          {"name":"pass3_block3_mbconv3_detection2_se_se_squeeze_conv/kernel","op":"Const","attr":{"dtype":{"type":"DT_FLOAT"},"value":{"tensor":{"dtype":"DT_FLOAT","tensorShape":{"dim":[{"size":"1"},{"size":"1"},{"size":"480"},{"size":"20"}]}}}}},
          {"name":"pass3_block3_mbconv3_detection2_se_se_squeeze_conv/bias","op":"Const","attr":{"value":{"tensor":{"dtype":"DT_FLOAT","tensorShape":{"dim":[{"size":"20"}]}}},"dtype":{"type":"DT_FLOAT"}}},
          {"name":"pass3_block3_mbconv3_detection2_se_se_excite_conv/kernel","op":"Const","attr":{"dtype":{"type":"DT_FLOAT"},"value":{"tensor":{"dtype":"DT_FLOAT","tensorShape":{"dim":[{"size":"1"},{"size":"1"},{"size":"20"},{"size":"480"}]}}}}},
          {"name":"pass3_block3_mbconv3_detection2_se_se_excite_conv/bias","op":"Const","attr":{"dtype":{"type":"DT_FLOAT"},"value":{"tensor":{"dtype":"DT_FLOAT","tensorShape":{"dim":[{"size":"480"}]}}}}},
          {"name":"pass3_block3_mbconv3_detection2_dconv1_eswish/mul/x","op":"Const","attr":{"dtype":{"type":"DT_FLOAT"},"value":{"tensor":{"dtype":"DT_FLOAT","tensorShape":{}}}}},
          {"name":"pass3_block3_mbconv3_detection2_conv1_eswish/mul/x","op":"Const","attr":{"value":{"tensor":{"dtype":"DT_FLOAT","tensorShape":{}}},"dtype":{"type":"DT_FLOAT"}}},
          {"name":"pass3_block3_mbconv2_detection2_se_se_squeeze_eswish/mul/x","op":"Const","attr":{"dtype":{"type":"DT_FLOAT"},"value":{"tensor":{"dtype":"DT_FLOAT","tensorShape":{}}}}},
          {"name":"pass3_block3_mbconv2_detection2_se_se_squeeze_lambda/Mean/reduction_indices","op":"Const","attr":{"value":{"tensor":{"dtype":"DT_INT32","tensorShape":{"dim":[{"size":"2"}]}}},"dtype":{"type":"DT_INT32"}}},
          {"name":"pass3_block3_mbconv2_detection2_se_se_squeeze_conv/kernel","op":"Const","attr":{"dtype":{"type":"DT_FLOAT"},"value":{"tensor":{"dtype":"DT_FLOAT","tensorShape":{"dim":[{"size":"1"},{"size":"1"},{"size":"480"},{"size":"20"}]}}}}},
          {"name":"pass3_block3_mbconv2_detection2_se_se_squeeze_conv/bias","op":"Const","attr":{"value":{"tensor":{"dtype":"DT_FLOAT","tensorShape":{"dim":[{"size":"20"}]}}},"dtype":{"type":"DT_FLOAT"}}},
          {"name":"pass3_block3_mbconv2_detection2_se_se_excite_conv/kernel","op":"Const","attr":{"value":{"tensor":{"dtype":"DT_FLOAT","tensorShape":{"dim":[{"size":"1"},{"size":"1"},{"size":"20"},{"size":"480"}]}}},"dtype":{"type":"DT_FLOAT"}}},
          {"name":"pass3_block3_mbconv2_detection2_se_se_excite_conv/bias","op":"Const","attr":{"dtype":{"type":"DT_FLOAT"},"value":{"tensor":{"dtype":"DT_FLOAT","tensorShape":{"dim":[{"size":"480"}]}}}}},
          {"name":"pass3_block3_mbconv2_detection2_dconv1_eswish/mul/x","op":"Const","attr":{"dtype":{"type":"DT_FLOAT"},"value":{"tensor":{"dtype":"DT_FLOAT","tensorShape":{}}}}},
          {"name":"pass3_block3_mbconv2_detection2_conv1_eswish/mul/x","op":"Const","attr":{"value":{"tensor":{"dtype":"DT_FLOAT","tensorShape":{}}},"dtype":{"type":"DT_FLOAT"}}},
          {"name":"pass3_block3_mbconv1_detection2_se_se_squeeze_eswish/mul/x","op":"Const","attr":{"dtype":{"type":"DT_FLOAT"},"value":{"tensor":{"dtype":"DT_FLOAT","tensorShape":{}}}}},
          {"name":"pass3_block3_mbconv1_detection2_se_se_squeeze_lambda/Mean/reduction_indices","op":"Const","attr":{"value":{"tensor":{"dtype":"DT_INT32","tensorShape":{"dim":[{"size":"2"}]}}},"dtype":{"type":"DT_INT32"}}},
          {"name":"pass3_block3_mbconv1_detection2_se_se_squeeze_conv/kernel","op":"Const","attr":{"dtype":{"type":"DT_FLOAT"},"value":{"tensor":{"dtype":"DT_FLOAT","tensorShape":{"dim":[{"size":"1"},{"size":"1"},{"size":"480"},{"size":"20"}]}}}}},
          {"name":"pass3_block3_mbconv1_detection2_se_se_squeeze_conv/bias","op":"Const","attr":{"value":{"tensor":{"dtype":"DT_FLOAT","tensorShape":{"dim":[{"size":"20"}]}}},"dtype":{"type":"DT_FLOAT"}}},
          {"name":"pass3_block3_mbconv1_detection2_se_se_excite_conv/kernel","op":"Const","attr":{"dtype":{"type":"DT_FLOAT"},"value":{"tensor":{"dtype":"DT_FLOAT","tensorShape":{"dim":[{"size":"1"},{"size":"1"},{"size":"20"},{"size":"480"}]}}}}},
          {"name":"pass3_block3_mbconv1_detection2_se_se_excite_conv/bias","op":"Const","attr":{"value":{"tensor":{"dtype":"DT_FLOAT","tensorShape":{"dim":[{"size":"480"}]}}},"dtype":{"type":"DT_FLOAT"}}},
          {"name":"pass3_block3_mbconv1_detection2_dconv1_eswish/mul/x","op":"Const","attr":{"dtype":{"type":"DT_FLOAT"},"value":{"tensor":{"dtype":"DT_FLOAT","tensorShape":{}}}}},
          {"name":"pass3_block3_mbconv1_detection2_conv1_eswish/mul/x","op":"Const","attr":{"value":{"tensor":{"dtype":"DT_FLOAT","tensorShape":{}}},"dtype":{"type":"DT_FLOAT"}}},
          {"name":"pass3_block3_mbconv2_detection2_dense/concat/axis","op":"Const","attr":{"value":{"tensor":{"dtype":"DT_INT32","tensorShape":{}}},"dtype":{"type":"DT_INT32"}}},
          {"name":"pass3_block3_mbconv3_detection2_dense/concat/axis","op":"Const","attr":{"value":{"tensor":{"dtype":"DT_INT32","tensorShape":{}}},"dtype":{"type":"DT_INT32"}}},
          {"name":"pass3_block2_mbconv3_detection2_se_se_squeeze_eswish/mul/x","op":"Const","attr":{"value":{"tensor":{"dtype":"DT_FLOAT","tensorShape":{}}},"dtype":{"type":"DT_FLOAT"}}},
          {"name":"pass3_block2_mbconv3_detection2_se_se_squeeze_lambda/Mean/reduction_indices","op":"Const","attr":{"value":{"tensor":{"dtype":"DT_INT32","tensorShape":{"dim":[{"size":"2"}]}}},"dtype":{"type":"DT_INT32"}}},
          {"name":"pass3_block2_mbconv3_detection2_se_se_squeeze_conv/kernel","op":"Const","attr":{"dtype":{"type":"DT_FLOAT"},"value":{"tensor":{"dtype":"DT_FLOAT","tensorShape":{"dim":[{"size":"1"},{"size":"1"},{"size":"480"},{"size":"20"}]}}}}},
          {"name":"pass3_block2_mbconv3_detection2_se_se_squeeze_conv/bias","op":"Const","attr":{"value":{"tensor":{"dtype":"DT_FLOAT","tensorShape":{"dim":[{"size":"20"}]}}},"dtype":{"type":"DT_FLOAT"}}},
          {"name":"pass3_block2_mbconv3_detection2_se_se_excite_conv/kernel","op":"Const","attr":{"dtype":{"type":"DT_FLOAT"},"value":{"tensor":{"dtype":"DT_FLOAT","tensorShape":{"dim":[{"size":"1"},{"size":"1"},{"size":"20"},{"size":"480"}]}}}}},
          {"name":"pass3_block2_mbconv3_detection2_se_se_excite_conv/bias","op":"Const","attr":{"value":{"tensor":{"dtype":"DT_FLOAT","tensorShape":{"dim":[{"size":"480"}]}}},"dtype":{"type":"DT_FLOAT"}}},
          {"name":"pass3_block2_mbconv3_detection2_dconv1_eswish/mul/x","op":"Const","attr":{"value":{"tensor":{"dtype":"DT_FLOAT","tensorShape":{}}},"dtype":{"type":"DT_FLOAT"}}},
          {"name":"pass3_block2_mbconv3_detection2_conv1_eswish/mul/x","op":"Const","attr":{"dtype":{"type":"DT_FLOAT"},"value":{"tensor":{"dtype":"DT_FLOAT","tensorShape":{}}}}},
          {"name":"pass3_block2_mbconv2_detection2_se_se_squeeze_eswish/mul/x","op":"Const","attr":{"value":{"tensor":{"dtype":"DT_FLOAT","tensorShape":{}}},"dtype":{"type":"DT_FLOAT"}}},
          {"name":"pass3_block2_mbconv2_detection2_se_se_squeeze_lambda/Mean/reduction_indices","op":"Const","attr":{"dtype":{"type":"DT_INT32"},"value":{"tensor":{"dtype":"DT_INT32","tensorShape":{"dim":[{"size":"2"}]}}}}},
          {"name":"pass3_block2_mbconv2_detection2_se_se_squeeze_conv/kernel","op":"Const","attr":{"dtype":{"type":"DT_FLOAT"},"value":{"tensor":{"dtype":"DT_FLOAT","tensorShape":{"dim":[{"size":"1"},{"size":"1"},{"size":"480"},{"size":"20"}]}}}}},
          {"name":"pass3_block2_mbconv2_detection2_se_se_squeeze_conv/bias","op":"Const","attr":{"dtype":{"type":"DT_FLOAT"},"value":{"tensor":{"dtype":"DT_FLOAT","tensorShape":{"dim":[{"size":"20"}]}}}}},
          {"name":"pass3_block2_mbconv2_detection2_se_se_excite_conv/kernel","op":"Const","attr":{"value":{"tensor":{"dtype":"DT_FLOAT","tensorShape":{"dim":[{"size":"1"},{"size":"1"},{"size":"20"},{"size":"480"}]}}},"dtype":{"type":"DT_FLOAT"}}},
          {"name":"pass3_block2_mbconv2_detection2_se_se_excite_conv/bias","op":"Const","attr":{"value":{"tensor":{"dtype":"DT_FLOAT","tensorShape":{"dim":[{"size":"480"}]}}},"dtype":{"type":"DT_FLOAT"}}},
          {"name":"pass3_block2_mbconv2_detection2_dconv1_eswish/mul/x","op":"Const","attr":{"value":{"tensor":{"dtype":"DT_FLOAT","tensorShape":{}}},"dtype":{"type":"DT_FLOAT"}}},
          {"name":"pass3_block2_mbconv2_detection2_conv1_eswish/mul/x","op":"Const","attr":{"dtype":{"type":"DT_FLOAT"},"value":{"tensor":{"dtype":"DT_FLOAT","tensorShape":{}}}}},
          {"name":"pass3_block2_mbconv1_detection2_se_se_squeeze_eswish/mul/x","op":"Const","attr":{"value":{"tensor":{"dtype":"DT_FLOAT","tensorShape":{}}},"dtype":{"type":"DT_FLOAT"}}},
          {"name":"pass3_block2_mbconv1_detection2_se_se_squeeze_lambda/Mean/reduction_indices","op":"Const","attr":{"value":{"tensor":{"dtype":"DT_INT32","tensorShape":{"dim":[{"size":"2"}]}}},"dtype":{"type":"DT_INT32"}}},
          {"name":"pass3_block2_mbconv1_detection2_se_se_squeeze_conv/kernel","op":"Const","attr":{"value":{"tensor":{"dtype":"DT_FLOAT","tensorShape":{"dim":[{"size":"1"},{"size":"1"},{"size":"480"},{"size":"20"}]}}},"dtype":{"type":"DT_FLOAT"}}},
          {"name":"pass3_block2_mbconv1_detection2_se_se_squeeze_conv/bias","op":"Const","attr":{"value":{"tensor":{"dtype":"DT_FLOAT","tensorShape":{"dim":[{"size":"20"}]}}},"dtype":{"type":"DT_FLOAT"}}},
          {"name":"pass3_block2_mbconv1_detection2_se_se_excite_conv/kernel","op":"Const","attr":{"value":{"tensor":{"dtype":"DT_FLOAT","tensorShape":{"dim":[{"size":"1"},{"size":"1"},{"size":"20"},{"size":"480"}]}}},"dtype":{"type":"DT_FLOAT"}}},
          {"name":"pass3_block2_mbconv1_detection2_se_se_excite_conv/bias","op":"Const","attr":{"dtype":{"type":"DT_FLOAT"},"value":{"tensor":{"dtype":"DT_FLOAT","tensorShape":{"dim":[{"size":"480"}]}}}}},
          {"name":"pass3_block2_mbconv1_detection2_dconv1_eswish/mul/x","op":"Const","attr":{"value":{"tensor":{"dtype":"DT_FLOAT","tensorShape":{}}},"dtype":{"type":"DT_FLOAT"}}},
          {"name":"pass3_block2_mbconv1_detection2_conv1_eswish/mul/x","op":"Const","attr":{"dtype":{"type":"DT_FLOAT"},"value":{"tensor":{"dtype":"DT_FLOAT","tensorShape":{}}}}},
          {"name":"pass3_block2_mbconv2_detection2_dense/concat/axis","op":"Const","attr":{"value":{"tensor":{"dtype":"DT_INT32","tensorShape":{}}},"dtype":{"type":"DT_INT32"}}},
          {"name":"pass3_block2_mbconv3_detection2_dense/concat/axis","op":"Const","attr":{"value":{"tensor":{"dtype":"DT_INT32","tensorShape":{}}},"dtype":{"type":"DT_INT32"}}},
          {"name":"pass3_block1_mbconv3_detection2_se_se_squeeze_eswish/mul/x","op":"Const","attr":{"dtype":{"type":"DT_FLOAT"},"value":{"tensor":{"dtype":"DT_FLOAT","tensorShape":{}}}}},
          {"name":"pass3_block1_mbconv3_detection2_se_se_squeeze_lambda/Mean/reduction_indices","op":"Const","attr":{"value":{"tensor":{"dtype":"DT_INT32","tensorShape":{"dim":[{"size":"2"}]}}},"dtype":{"type":"DT_INT32"}}},
          {"name":"pass3_block1_mbconv3_detection2_se_se_squeeze_conv/kernel","op":"Const","attr":{"value":{"tensor":{"dtype":"DT_FLOAT","tensorShape":{"dim":[{"size":"1"},{"size":"1"},{"size":"480"},{"size":"20"}]}}},"dtype":{"type":"DT_FLOAT"}}},
          {"name":"pass3_block1_mbconv3_detection2_se_se_squeeze_conv/bias","op":"Const","attr":{"value":{"tensor":{"dtype":"DT_FLOAT","tensorShape":{"dim":[{"size":"20"}]}}},"dtype":{"type":"DT_FLOAT"}}},
          {"name":"pass3_block1_mbconv3_detection2_se_se_excite_conv/kernel","op":"Const","attr":{"dtype":{"type":"DT_FLOAT"},"value":{"tensor":{"dtype":"DT_FLOAT","tensorShape":{"dim":[{"size":"1"},{"size":"1"},{"size":"20"},{"size":"480"}]}}}}},
          {"name":"pass3_block1_mbconv3_detection2_se_se_excite_conv/bias","op":"Const","attr":{"dtype":{"type":"DT_FLOAT"},"value":{"tensor":{"dtype":"DT_FLOAT","tensorShape":{"dim":[{"size":"480"}]}}}}},
          {"name":"pass3_block1_mbconv3_detection2_dconv1_eswish/mul/x","op":"Const","attr":{"value":{"tensor":{"dtype":"DT_FLOAT","tensorShape":{}}},"dtype":{"type":"DT_FLOAT"}}},
          {"name":"pass3_block1_mbconv3_detection2_conv1_eswish/mul/x","op":"Const","attr":{"dtype":{"type":"DT_FLOAT"},"value":{"tensor":{"dtype":"DT_FLOAT","tensorShape":{}}}}},
          {"name":"pass3_block1_mbconv2_detection2_se_se_squeeze_eswish/mul/x","op":"Const","attr":{"dtype":{"type":"DT_FLOAT"},"value":{"tensor":{"dtype":"DT_FLOAT","tensorShape":{}}}}},
          {"name":"pass3_block1_mbconv2_detection2_se_se_squeeze_lambda/Mean/reduction_indices","op":"Const","attr":{"value":{"tensor":{"dtype":"DT_INT32","tensorShape":{"dim":[{"size":"2"}]}}},"dtype":{"type":"DT_INT32"}}},
          {"name":"pass3_block1_mbconv2_detection2_se_se_squeeze_conv/kernel","op":"Const","attr":{"dtype":{"type":"DT_FLOAT"},"value":{"tensor":{"dtype":"DT_FLOAT","tensorShape":{"dim":[{"size":"1"},{"size":"1"},{"size":"480"},{"size":"20"}]}}}}},
          {"name":"pass3_block1_mbconv2_detection2_se_se_squeeze_conv/bias","op":"Const","attr":{"dtype":{"type":"DT_FLOAT"},"value":{"tensor":{"dtype":"DT_FLOAT","tensorShape":{"dim":[{"size":"20"}]}}}}},
          {"name":"pass3_block1_mbconv2_detection2_se_se_excite_conv/kernel","op":"Const","attr":{"value":{"tensor":{"dtype":"DT_FLOAT","tensorShape":{"dim":[{"size":"1"},{"size":"1"},{"size":"20"},{"size":"480"}]}}},"dtype":{"type":"DT_FLOAT"}}},
          {"name":"pass3_block1_mbconv2_detection2_se_se_excite_conv/bias","op":"Const","attr":{"value":{"tensor":{"dtype":"DT_FLOAT","tensorShape":{"dim":[{"size":"480"}]}}},"dtype":{"type":"DT_FLOAT"}}},
          {"name":"pass3_block1_mbconv2_detection2_dconv1_eswish/mul/x","op":"Const","attr":{"value":{"tensor":{"dtype":"DT_FLOAT","tensorShape":{}}},"dtype":{"type":"DT_FLOAT"}}},
          {"name":"pass3_block1_mbconv2_detection2_conv1_eswish/mul/x","op":"Const","attr":{"value":{"tensor":{"dtype":"DT_FLOAT","tensorShape":{}}},"dtype":{"type":"DT_FLOAT"}}},
          {"name":"pass3_block1_mbconv1_detection2_se_se_squeeze_eswish/mul/x","op":"Const","attr":{"value":{"tensor":{"dtype":"DT_FLOAT","tensorShape":{}}},"dtype":{"type":"DT_FLOAT"}}},
          {"name":"pass3_block1_mbconv1_detection2_se_se_squeeze_lambda/Mean/reduction_indices","op":"Const","attr":{"dtype":{"type":"DT_INT32"},"value":{"tensor":{"dtype":"DT_INT32","tensorShape":{"dim":[{"size":"2"}]}}}}},
          {"name":"pass3_block1_mbconv1_detection2_se_se_squeeze_conv/kernel","op":"Const","attr":{"value":{"tensor":{"dtype":"DT_FLOAT","tensorShape":{"dim":[{"size":"1"},{"size":"1"},{"size":"480"},{"size":"20"}]}}},"dtype":{"type":"DT_FLOAT"}}},
          {"name":"pass3_block1_mbconv1_detection2_se_se_squeeze_conv/bias","op":"Const","attr":{"value":{"tensor":{"dtype":"DT_FLOAT","tensorShape":{"dim":[{"size":"20"}]}}},"dtype":{"type":"DT_FLOAT"}}},
          {"name":"pass3_block1_mbconv1_detection2_se_se_excite_conv/kernel","op":"Const","attr":{"value":{"tensor":{"dtype":"DT_FLOAT","tensorShape":{"dim":[{"size":"1"},{"size":"1"},{"size":"20"},{"size":"480"}]}}},"dtype":{"type":"DT_FLOAT"}}},
          {"name":"pass3_block1_mbconv1_detection2_se_se_excite_conv/bias","op":"Const","attr":{"value":{"tensor":{"dtype":"DT_FLOAT","tensorShape":{"dim":[{"size":"480"}]}}},"dtype":{"type":"DT_FLOAT"}}},
          {"name":"pass3_block1_mbconv1_detection2_dconv1_eswish/mul/x","op":"Const","attr":{"dtype":{"type":"DT_FLOAT"},"value":{"tensor":{"dtype":"DT_FLOAT","tensorShape":{}}}}},
          {"name":"pass3_block1_mbconv1_detection2_conv1_eswish/mul/x","op":"Const","attr":{"dtype":{"type":"DT_FLOAT"},"value":{"tensor":{"dtype":"DT_FLOAT","tensorShape":{}}}}},
          {"name":"pass2_block4_mbconv3_detection1_se_se_squeeze_eswish/mul/x","op":"Const","attr":{"dtype":{"type":"DT_FLOAT"},"value":{"tensor":{"dtype":"DT_FLOAT","tensorShape":{}}}}},
          {"name":"pass2_block4_mbconv3_detection1_se_se_squeeze_lambda/Mean/reduction_indices","op":"Const","attr":{"value":{"tensor":{"dtype":"DT_INT32","tensorShape":{"dim":[{"size":"2"}]}}},"dtype":{"type":"DT_INT32"}}},
          {"name":"pass2_block4_mbconv3_detection1_se_se_squeeze_conv/kernel","op":"Const","attr":{"dtype":{"type":"DT_FLOAT"},"value":{"tensor":{"dtype":"DT_FLOAT","tensorShape":{"dim":[{"size":"1"},{"size":"1"},{"size":"480"},{"size":"20"}]}}}}},
          {"name":"pass2_block4_mbconv3_detection1_se_se_squeeze_conv/bias","op":"Const","attr":{"value":{"tensor":{"dtype":"DT_FLOAT","tensorShape":{"dim":[{"size":"20"}]}}},"dtype":{"type":"DT_FLOAT"}}},
          {"name":"pass2_block4_mbconv3_detection1_se_se_excite_conv/kernel","op":"Const","attr":{"value":{"tensor":{"dtype":"DT_FLOAT","tensorShape":{"dim":[{"size":"1"},{"size":"1"},{"size":"20"},{"size":"480"}]}}},"dtype":{"type":"DT_FLOAT"}}},
          {"name":"pass2_block4_mbconv3_detection1_se_se_excite_conv/bias","op":"Const","attr":{"value":{"tensor":{"dtype":"DT_FLOAT","tensorShape":{"dim":[{"size":"480"}]}}},"dtype":{"type":"DT_FLOAT"}}},
          {"name":"pass2_block4_mbconv3_detection1_dconv1_eswish/mul/x","op":"Const","attr":{"value":{"tensor":{"dtype":"DT_FLOAT","tensorShape":{}}},"dtype":{"type":"DT_FLOAT"}}},
          {"name":"pass2_block4_mbconv3_detection1_conv1_eswish/mul/x","op":"Const","attr":{"value":{"tensor":{"dtype":"DT_FLOAT","tensorShape":{}}},"dtype":{"type":"DT_FLOAT"}}},
          {"name":"pass2_block4_mbconv2_detection1_se_se_squeeze_eswish/mul/x","op":"Const","attr":{"dtype":{"type":"DT_FLOAT"},"value":{"tensor":{"dtype":"DT_FLOAT","tensorShape":{}}}}},
          {"name":"pass2_block4_mbconv2_detection1_se_se_squeeze_lambda/Mean/reduction_indices","op":"Const","attr":{"value":{"tensor":{"dtype":"DT_INT32","tensorShape":{"dim":[{"size":"2"}]}}},"dtype":{"type":"DT_INT32"}}},
          {"name":"pass2_block4_mbconv2_detection1_se_se_squeeze_conv/kernel","op":"Const","attr":{"dtype":{"type":"DT_FLOAT"},"value":{"tensor":{"dtype":"DT_FLOAT","tensorShape":{"dim":[{"size":"1"},{"size":"1"},{"size":"480"},{"size":"20"}]}}}}},
          {"name":"pass2_block4_mbconv2_detection1_se_se_squeeze_conv/bias","op":"Const","attr":{"dtype":{"type":"DT_FLOAT"},"value":{"tensor":{"dtype":"DT_FLOAT","tensorShape":{"dim":[{"size":"20"}]}}}}},
          {"name":"pass2_block4_mbconv2_detection1_se_se_excite_conv/kernel","op":"Const","attr":{"dtype":{"type":"DT_FLOAT"},"value":{"tensor":{"dtype":"DT_FLOAT","tensorShape":{"dim":[{"size":"1"},{"size":"1"},{"size":"20"},{"size":"480"}]}}}}},
          {"name":"pass2_block4_mbconv2_detection1_se_se_excite_conv/bias","op":"Const","attr":{"dtype":{"type":"DT_FLOAT"},"value":{"tensor":{"dtype":"DT_FLOAT","tensorShape":{"dim":[{"size":"480"}]}}}}},
          {"name":"pass2_block4_mbconv2_detection1_dconv1_eswish/mul/x","op":"Const","attr":{"value":{"tensor":{"dtype":"DT_FLOAT","tensorShape":{}}},"dtype":{"type":"DT_FLOAT"}}},
          {"name":"pass2_block4_mbconv2_detection1_conv1_eswish/mul/x","op":"Const","attr":{"value":{"tensor":{"dtype":"DT_FLOAT","tensorShape":{}}},"dtype":{"type":"DT_FLOAT"}}},
          {"name":"pass2_block4_mbconv1_detection1_se_se_squeeze_eswish/mul/x","op":"Const","attr":{"value":{"tensor":{"dtype":"DT_FLOAT","tensorShape":{}}},"dtype":{"type":"DT_FLOAT"}}},
          {"name":"pass2_block4_mbconv1_detection1_se_se_squeeze_lambda/Mean/reduction_indices","op":"Const","attr":{"dtype":{"type":"DT_INT32"},"value":{"tensor":{"dtype":"DT_INT32","tensorShape":{"dim":[{"size":"2"}]}}}}},
          {"name":"pass2_block4_mbconv1_detection1_se_se_squeeze_conv/kernel","op":"Const","attr":{"dtype":{"type":"DT_FLOAT"},"value":{"tensor":{"dtype":"DT_FLOAT","tensorShape":{"dim":[{"size":"1"},{"size":"1"},{"size":"480"},{"size":"20"}]}}}}},
          {"name":"pass2_block4_mbconv1_detection1_se_se_squeeze_conv/bias","op":"Const","attr":{"value":{"tensor":{"dtype":"DT_FLOAT","tensorShape":{"dim":[{"size":"20"}]}}},"dtype":{"type":"DT_FLOAT"}}},
          {"name":"pass2_block4_mbconv1_detection1_se_se_excite_conv/kernel","op":"Const","attr":{"value":{"tensor":{"dtype":"DT_FLOAT","tensorShape":{"dim":[{"size":"1"},{"size":"1"},{"size":"20"},{"size":"480"}]}}},"dtype":{"type":"DT_FLOAT"}}},
          {"name":"pass2_block4_mbconv1_detection1_se_se_excite_conv/bias","op":"Const","attr":{"value":{"tensor":{"dtype":"DT_FLOAT","tensorShape":{"dim":[{"size":"480"}]}}},"dtype":{"type":"DT_FLOAT"}}},
          {"name":"pass2_block4_mbconv1_detection1_dconv1_eswish/mul/x","op":"Const","attr":{"value":{"tensor":{"dtype":"DT_FLOAT","tensorShape":{}}},"dtype":{"type":"DT_FLOAT"}}},
          {"name":"pass2_block4_mbconv1_detection1_conv1_eswish/mul/x","op":"Const","attr":{"value":{"tensor":{"dtype":"DT_FLOAT","tensorShape":{}}},"dtype":{"type":"DT_FLOAT"}}},
          {"name":"pass2_block4_mbconv2_detection1_dense/concat/axis","op":"Const","attr":{"value":{"tensor":{"dtype":"DT_INT32","tensorShape":{}}},"dtype":{"type":"DT_INT32"}}},
          {"name":"pass2_block4_mbconv3_detection1_dense/concat/axis","op":"Const","attr":{"value":{"tensor":{"dtype":"DT_INT32","tensorShape":{}}},"dtype":{"type":"DT_INT32"}}},
          {"name":"pass2_block3_mbconv3_detection1_se_se_squeeze_eswish/mul/x","op":"Const","attr":{"value":{"tensor":{"dtype":"DT_FLOAT","tensorShape":{}}},"dtype":{"type":"DT_FLOAT"}}},
          {"name":"pass2_block3_mbconv3_detection1_se_se_squeeze_lambda/Mean/reduction_indices","op":"Const","attr":{"value":{"tensor":{"dtype":"DT_INT32","tensorShape":{"dim":[{"size":"2"}]}}},"dtype":{"type":"DT_INT32"}}},
          {"name":"pass2_block3_mbconv3_detection1_se_se_squeeze_conv/kernel","op":"Const","attr":{"dtype":{"type":"DT_FLOAT"},"value":{"tensor":{"dtype":"DT_FLOAT","tensorShape":{"dim":[{"size":"1"},{"size":"1"},{"size":"480"},{"size":"20"}]}}}}},
          {"name":"pass2_block3_mbconv3_detection1_se_se_squeeze_conv/bias","op":"Const","attr":{"value":{"tensor":{"dtype":"DT_FLOAT","tensorShape":{"dim":[{"size":"20"}]}}},"dtype":{"type":"DT_FLOAT"}}},
          {"name":"pass2_block3_mbconv3_detection1_se_se_excite_conv/kernel","op":"Const","attr":{"value":{"tensor":{"dtype":"DT_FLOAT","tensorShape":{"dim":[{"size":"1"},{"size":"1"},{"size":"20"},{"size":"480"}]}}},"dtype":{"type":"DT_FLOAT"}}},
          {"name":"pass2_block3_mbconv3_detection1_se_se_excite_conv/bias","op":"Const","attr":{"dtype":{"type":"DT_FLOAT"},"value":{"tensor":{"dtype":"DT_FLOAT","tensorShape":{"dim":[{"size":"480"}]}}}}},
          {"name":"pass2_block3_mbconv3_detection1_dconv1_eswish/mul/x","op":"Const","attr":{"dtype":{"type":"DT_FLOAT"},"value":{"tensor":{"dtype":"DT_FLOAT","tensorShape":{}}}}},
          {"name":"pass2_block3_mbconv3_detection1_conv1_eswish/mul/x","op":"Const","attr":{"dtype":{"type":"DT_FLOAT"},"value":{"tensor":{"dtype":"DT_FLOAT","tensorShape":{}}}}},
          {"name":"pass2_block3_mbconv2_detection1_se_se_squeeze_eswish/mul/x","op":"Const","attr":{"value":{"tensor":{"dtype":"DT_FLOAT","tensorShape":{}}},"dtype":{"type":"DT_FLOAT"}}},
          {"name":"pass2_block3_mbconv2_detection1_se_se_squeeze_lambda/Mean/reduction_indices","op":"Const","attr":{"value":{"tensor":{"dtype":"DT_INT32","tensorShape":{"dim":[{"size":"2"}]}}},"dtype":{"type":"DT_INT32"}}},
          {"name":"pass2_block3_mbconv2_detection1_se_se_squeeze_conv/kernel","op":"Const","attr":{"value":{"tensor":{"dtype":"DT_FLOAT","tensorShape":{"dim":[{"size":"1"},{"size":"1"},{"size":"480"},{"size":"20"}]}}},"dtype":{"type":"DT_FLOAT"}}},
          {"name":"pass2_block3_mbconv2_detection1_se_se_squeeze_conv/bias","op":"Const","attr":{"dtype":{"type":"DT_FLOAT"},"value":{"tensor":{"dtype":"DT_FLOAT","tensorShape":{"dim":[{"size":"20"}]}}}}},
          {"name":"pass2_block3_mbconv2_detection1_se_se_excite_conv/kernel","op":"Const","attr":{"dtype":{"type":"DT_FLOAT"},"value":{"tensor":{"dtype":"DT_FLOAT","tensorShape":{"dim":[{"size":"1"},{"size":"1"},{"size":"20"},{"size":"480"}]}}}}},
          {"name":"pass2_block3_mbconv2_detection1_se_se_excite_conv/bias","op":"Const","attr":{"dtype":{"type":"DT_FLOAT"},"value":{"tensor":{"dtype":"DT_FLOAT","tensorShape":{"dim":[{"size":"480"}]}}}}},
          {"name":"pass2_block3_mbconv2_detection1_dconv1_eswish/mul/x","op":"Const","attr":{"dtype":{"type":"DT_FLOAT"},"value":{"tensor":{"dtype":"DT_FLOAT","tensorShape":{}}}}},
          {"name":"pass2_block3_mbconv2_detection1_conv1_eswish/mul/x","op":"Const","attr":{"dtype":{"type":"DT_FLOAT"},"value":{"tensor":{"dtype":"DT_FLOAT","tensorShape":{}}}}},
          {"name":"pass2_block3_mbconv1_detection1_se_se_squeeze_eswish/mul/x","op":"Const","attr":{"value":{"tensor":{"dtype":"DT_FLOAT","tensorShape":{}}},"dtype":{"type":"DT_FLOAT"}}},
          {"name":"pass2_block3_mbconv1_detection1_se_se_squeeze_lambda/Mean/reduction_indices","op":"Const","attr":{"value":{"tensor":{"dtype":"DT_INT32","tensorShape":{"dim":[{"size":"2"}]}}},"dtype":{"type":"DT_INT32"}}},
          {"name":"pass2_block3_mbconv1_detection1_se_se_squeeze_conv/kernel","op":"Const","attr":{"value":{"tensor":{"dtype":"DT_FLOAT","tensorShape":{"dim":[{"size":"1"},{"size":"1"},{"size":"480"},{"size":"20"}]}}},"dtype":{"type":"DT_FLOAT"}}},
          {"name":"pass2_block3_mbconv1_detection1_se_se_squeeze_conv/bias","op":"Const","attr":{"value":{"tensor":{"dtype":"DT_FLOAT","tensorShape":{"dim":[{"size":"20"}]}}},"dtype":{"type":"DT_FLOAT"}}},
          {"name":"pass2_block3_mbconv1_detection1_se_se_excite_conv/kernel","op":"Const","attr":{"value":{"tensor":{"dtype":"DT_FLOAT","tensorShape":{"dim":[{"size":"1"},{"size":"1"},{"size":"20"},{"size":"480"}]}}},"dtype":{"type":"DT_FLOAT"}}},
          {"name":"pass2_block3_mbconv1_detection1_se_se_excite_conv/bias","op":"Const","attr":{"dtype":{"type":"DT_FLOAT"},"value":{"tensor":{"dtype":"DT_FLOAT","tensorShape":{"dim":[{"size":"480"}]}}}}},
          {"name":"pass2_block3_mbconv1_detection1_dconv1_eswish/mul/x","op":"Const","attr":{"dtype":{"type":"DT_FLOAT"},"value":{"tensor":{"dtype":"DT_FLOAT","tensorShape":{}}}}},
          {"name":"pass2_block3_mbconv1_detection1_conv1_eswish/mul/x","op":"Const","attr":{"value":{"tensor":{"dtype":"DT_FLOAT","tensorShape":{}}},"dtype":{"type":"DT_FLOAT"}}},
          {"name":"pass2_block3_mbconv2_detection1_dense/concat/axis","op":"Const","attr":{"value":{"tensor":{"dtype":"DT_INT32","tensorShape":{}}},"dtype":{"type":"DT_INT32"}}},
          {"name":"pass2_block3_mbconv3_detection1_dense/concat/axis","op":"Const","attr":{"dtype":{"type":"DT_INT32"},"value":{"tensor":{"dtype":"DT_INT32","tensorShape":{}}}}},
          {"name":"pass2_block2_mbconv3_detection1_se_se_squeeze_eswish/mul/x","op":"Const","attr":{"dtype":{"type":"DT_FLOAT"},"value":{"tensor":{"dtype":"DT_FLOAT","tensorShape":{}}}}},
          {"name":"pass2_block2_mbconv3_detection1_se_se_squeeze_lambda/Mean/reduction_indices","op":"Const","attr":{"dtype":{"type":"DT_INT32"},"value":{"tensor":{"dtype":"DT_INT32","tensorShape":{"dim":[{"size":"2"}]}}}}},
          {"name":"pass2_block2_mbconv3_detection1_se_se_squeeze_conv/kernel","op":"Const","attr":{"dtype":{"type":"DT_FLOAT"},"value":{"tensor":{"dtype":"DT_FLOAT","tensorShape":{"dim":[{"size":"1"},{"size":"1"},{"size":"480"},{"size":"20"}]}}}}},
          {"name":"pass2_block2_mbconv3_detection1_se_se_squeeze_conv/bias","op":"Const","attr":{"dtype":{"type":"DT_FLOAT"},"value":{"tensor":{"dtype":"DT_FLOAT","tensorShape":{"dim":[{"size":"20"}]}}}}},
          {"name":"pass2_block2_mbconv3_detection1_se_se_excite_conv/kernel","op":"Const","attr":{"dtype":{"type":"DT_FLOAT"},"value":{"tensor":{"dtype":"DT_FLOAT","tensorShape":{"dim":[{"size":"1"},{"size":"1"},{"size":"20"},{"size":"480"}]}}}}},
          {"name":"pass2_block2_mbconv3_detection1_se_se_excite_conv/bias","op":"Const","attr":{"value":{"tensor":{"dtype":"DT_FLOAT","tensorShape":{"dim":[{"size":"480"}]}}},"dtype":{"type":"DT_FLOAT"}}},
          {"name":"pass2_block2_mbconv3_detection1_dconv1_eswish/mul/x","op":"Const","attr":{"dtype":{"type":"DT_FLOAT"},"value":{"tensor":{"dtype":"DT_FLOAT","tensorShape":{}}}}},
          {"name":"pass2_block2_mbconv3_detection1_conv1_eswish/mul/x","op":"Const","attr":{"dtype":{"type":"DT_FLOAT"},"value":{"tensor":{"dtype":"DT_FLOAT","tensorShape":{}}}}},
          {"name":"pass2_block2_mbconv2_detection1_se_se_squeeze_eswish/mul/x","op":"Const","attr":{"value":{"tensor":{"dtype":"DT_FLOAT","tensorShape":{}}},"dtype":{"type":"DT_FLOAT"}}},
          {"name":"pass2_block2_mbconv2_detection1_se_se_squeeze_lambda/Mean/reduction_indices","op":"Const","attr":{"value":{"tensor":{"dtype":"DT_INT32","tensorShape":{"dim":[{"size":"2"}]}}},"dtype":{"type":"DT_INT32"}}},
          {"name":"pass2_block2_mbconv2_detection1_se_se_squeeze_conv/kernel","op":"Const","attr":{"dtype":{"type":"DT_FLOAT"},"value":{"tensor":{"dtype":"DT_FLOAT","tensorShape":{"dim":[{"size":"1"},{"size":"1"},{"size":"480"},{"size":"20"}]}}}}},
          {"name":"pass2_block2_mbconv2_detection1_se_se_squeeze_conv/bias","op":"Const","attr":{"dtype":{"type":"DT_FLOAT"},"value":{"tensor":{"dtype":"DT_FLOAT","tensorShape":{"dim":[{"size":"20"}]}}}}},
          {"name":"pass2_block2_mbconv2_detection1_se_se_excite_conv/kernel","op":"Const","attr":{"dtype":{"type":"DT_FLOAT"},"value":{"tensor":{"dtype":"DT_FLOAT","tensorShape":{"dim":[{"size":"1"},{"size":"1"},{"size":"20"},{"size":"480"}]}}}}},
          {"name":"pass2_block2_mbconv2_detection1_se_se_excite_conv/bias","op":"Const","attr":{"dtype":{"type":"DT_FLOAT"},"value":{"tensor":{"dtype":"DT_FLOAT","tensorShape":{"dim":[{"size":"480"}]}}}}},
          {"name":"pass2_block2_mbconv2_detection1_dconv1_eswish/mul/x","op":"Const","attr":{"dtype":{"type":"DT_FLOAT"},"value":{"tensor":{"dtype":"DT_FLOAT","tensorShape":{}}}}},
          {"name":"pass2_block2_mbconv2_detection1_conv1_eswish/mul/x","op":"Const","attr":{"value":{"tensor":{"dtype":"DT_FLOAT","tensorShape":{}}},"dtype":{"type":"DT_FLOAT"}}},
          {"name":"pass2_block2_mbconv1_detection1_se_se_squeeze_eswish/mul/x","op":"Const","attr":{"dtype":{"type":"DT_FLOAT"},"value":{"tensor":{"dtype":"DT_FLOAT","tensorShape":{}}}}},
          {"name":"pass2_block2_mbconv1_detection1_se_se_squeeze_lambda/Mean/reduction_indices","op":"Const","attr":{"dtype":{"type":"DT_INT32"},"value":{"tensor":{"dtype":"DT_INT32","tensorShape":{"dim":[{"size":"2"}]}}}}},
          {"name":"pass2_block2_mbconv1_detection1_se_se_squeeze_conv/kernel","op":"Const","attr":{"dtype":{"type":"DT_FLOAT"},"value":{"tensor":{"dtype":"DT_FLOAT","tensorShape":{"dim":[{"size":"1"},{"size":"1"},{"size":"480"},{"size":"20"}]}}}}},
          {"name":"pass2_block2_mbconv1_detection1_se_se_squeeze_conv/bias","op":"Const","attr":{"value":{"tensor":{"dtype":"DT_FLOAT","tensorShape":{"dim":[{"size":"20"}]}}},"dtype":{"type":"DT_FLOAT"}}},
          {"name":"pass2_block2_mbconv1_detection1_se_se_excite_conv/kernel","op":"Const","attr":{"dtype":{"type":"DT_FLOAT"},"value":{"tensor":{"dtype":"DT_FLOAT","tensorShape":{"dim":[{"size":"1"},{"size":"1"},{"size":"20"},{"size":"480"}]}}}}},
          {"name":"pass2_block2_mbconv1_detection1_se_se_excite_conv/bias","op":"Const","attr":{"value":{"tensor":{"dtype":"DT_FLOAT","tensorShape":{"dim":[{"size":"480"}]}}},"dtype":{"type":"DT_FLOAT"}}},
          {"name":"pass2_block2_mbconv1_detection1_dconv1_eswish/mul/x","op":"Const","attr":{"dtype":{"type":"DT_FLOAT"},"value":{"tensor":{"dtype":"DT_FLOAT","tensorShape":{}}}}},
          {"name":"pass2_block2_mbconv1_detection1_conv1_eswish/mul/x","op":"Const","attr":{"value":{"tensor":{"dtype":"DT_FLOAT","tensorShape":{}}},"dtype":{"type":"DT_FLOAT"}}},
          {"name":"pass2_block2_mbconv2_detection1_dense/concat/axis","op":"Const","attr":{"value":{"tensor":{"dtype":"DT_INT32","tensorShape":{}}},"dtype":{"type":"DT_INT32"}}},
          {"name":"pass2_block2_mbconv3_detection1_dense/concat/axis","op":"Const","attr":{"dtype":{"type":"DT_INT32"},"value":{"tensor":{"dtype":"DT_INT32","tensorShape":{}}}}},
          {"name":"pass2_block1_mbconv3_detection1_se_se_squeeze_eswish/mul/x","op":"Const","attr":{"value":{"tensor":{"dtype":"DT_FLOAT","tensorShape":{}}},"dtype":{"type":"DT_FLOAT"}}},
          {"name":"pass2_block1_mbconv3_detection1_se_se_squeeze_lambda/Mean/reduction_indices","op":"Const","attr":{"value":{"tensor":{"dtype":"DT_INT32","tensorShape":{"dim":[{"size":"2"}]}}},"dtype":{"type":"DT_INT32"}}},
          {"name":"pass2_block1_mbconv3_detection1_se_se_squeeze_conv/kernel","op":"Const","attr":{"value":{"tensor":{"dtype":"DT_FLOAT","tensorShape":{"dim":[{"size":"1"},{"size":"1"},{"size":"480"},{"size":"20"}]}}},"dtype":{"type":"DT_FLOAT"}}},
          {"name":"pass2_block1_mbconv3_detection1_se_se_squeeze_conv/bias","op":"Const","attr":{"dtype":{"type":"DT_FLOAT"},"value":{"tensor":{"dtype":"DT_FLOAT","tensorShape":{"dim":[{"size":"20"}]}}}}},
          {"name":"pass2_block1_mbconv3_detection1_se_se_excite_conv/kernel","op":"Const","attr":{"value":{"tensor":{"dtype":"DT_FLOAT","tensorShape":{"dim":[{"size":"1"},{"size":"1"},{"size":"20"},{"size":"480"}]}}},"dtype":{"type":"DT_FLOAT"}}},
          {"name":"pass2_block1_mbconv3_detection1_se_se_excite_conv/bias","op":"Const","attr":{"dtype":{"type":"DT_FLOAT"},"value":{"tensor":{"dtype":"DT_FLOAT","tensorShape":{"dim":[{"size":"480"}]}}}}},
          {"name":"pass2_block1_mbconv3_detection1_dconv1_eswish/mul/x","op":"Const","attr":{"value":{"tensor":{"dtype":"DT_FLOAT","tensorShape":{}}},"dtype":{"type":"DT_FLOAT"}}},
          {"name":"pass2_block1_mbconv3_detection1_conv1_eswish/mul/x","op":"Const","attr":{"dtype":{"type":"DT_FLOAT"},"value":{"tensor":{"dtype":"DT_FLOAT","tensorShape":{}}}}},
          {"name":"pass2_block1_mbconv2_detection1_se_se_squeeze_eswish/mul/x","op":"Const","attr":{"dtype":{"type":"DT_FLOAT"},"value":{"tensor":{"dtype":"DT_FLOAT","tensorShape":{}}}}},
          {"name":"pass2_block1_mbconv2_detection1_se_se_squeeze_lambda/Mean/reduction_indices","op":"Const","attr":{"value":{"tensor":{"dtype":"DT_INT32","tensorShape":{"dim":[{"size":"2"}]}}},"dtype":{"type":"DT_INT32"}}},
          {"name":"pass2_block1_mbconv2_detection1_se_se_squeeze_conv/kernel","op":"Const","attr":{"dtype":{"type":"DT_FLOAT"},"value":{"tensor":{"dtype":"DT_FLOAT","tensorShape":{"dim":[{"size":"1"},{"size":"1"},{"size":"480"},{"size":"20"}]}}}}},
          {"name":"pass2_block1_mbconv2_detection1_se_se_squeeze_conv/bias","op":"Const","attr":{"value":{"tensor":{"dtype":"DT_FLOAT","tensorShape":{"dim":[{"size":"20"}]}}},"dtype":{"type":"DT_FLOAT"}}},
          {"name":"pass2_block1_mbconv2_detection1_se_se_excite_conv/kernel","op":"Const","attr":{"dtype":{"type":"DT_FLOAT"},"value":{"tensor":{"dtype":"DT_FLOAT","tensorShape":{"dim":[{"size":"1"},{"size":"1"},{"size":"20"},{"size":"480"}]}}}}},
          {"name":"pass2_block1_mbconv2_detection1_se_se_excite_conv/bias","op":"Const","attr":{"value":{"tensor":{"dtype":"DT_FLOAT","tensorShape":{"dim":[{"size":"480"}]}}},"dtype":{"type":"DT_FLOAT"}}},
          {"name":"pass2_block1_mbconv2_detection1_dconv1_eswish/mul/x","op":"Const","attr":{"value":{"tensor":{"dtype":"DT_FLOAT","tensorShape":{}}},"dtype":{"type":"DT_FLOAT"}}},
          {"name":"pass2_block1_mbconv2_detection1_conv1_eswish/mul/x","op":"Const","attr":{"dtype":{"type":"DT_FLOAT"},"value":{"tensor":{"dtype":"DT_FLOAT","tensorShape":{}}}}},
          {"name":"pass2_block1_mbconv1_detection1_se_se_squeeze_eswish/mul/x","op":"Const","attr":{"dtype":{"type":"DT_FLOAT"},"value":{"tensor":{"dtype":"DT_FLOAT","tensorShape":{}}}}},
          {"name":"pass2_block1_mbconv1_detection1_se_se_squeeze_lambda/Mean/reduction_indices","op":"Const","attr":{"dtype":{"type":"DT_INT32"},"value":{"tensor":{"dtype":"DT_INT32","tensorShape":{"dim":[{"size":"2"}]}}}}},
          {"name":"pass2_block1_mbconv1_detection1_se_se_squeeze_conv/kernel","op":"Const","attr":{"value":{"tensor":{"dtype":"DT_FLOAT","tensorShape":{"dim":[{"size":"1"},{"size":"1"},{"size":"480"},{"size":"20"}]}}},"dtype":{"type":"DT_FLOAT"}}},
          {"name":"pass2_block1_mbconv1_detection1_se_se_squeeze_conv/bias","op":"Const","attr":{"value":{"tensor":{"dtype":"DT_FLOAT","tensorShape":{"dim":[{"size":"20"}]}}},"dtype":{"type":"DT_FLOAT"}}},
          {"name":"pass2_block1_mbconv1_detection1_se_se_excite_conv/kernel","op":"Const","attr":{"value":{"tensor":{"dtype":"DT_FLOAT","tensorShape":{"dim":[{"size":"1"},{"size":"1"},{"size":"20"},{"size":"480"}]}}},"dtype":{"type":"DT_FLOAT"}}},
          {"name":"pass2_block1_mbconv1_detection1_se_se_excite_conv/bias","op":"Const","attr":{"dtype":{"type":"DT_FLOAT"},"value":{"tensor":{"dtype":"DT_FLOAT","tensorShape":{"dim":[{"size":"480"}]}}}}},
          {"name":"pass2_block1_mbconv1_detection1_dconv1_eswish/mul/x","op":"Const","attr":{"dtype":{"type":"DT_FLOAT"},"value":{"tensor":{"dtype":"DT_FLOAT","tensorShape":{}}}}},
          {"name":"pass2_block1_mbconv1_detection1_conv1_eswish/mul/x","op":"Const","attr":{"value":{"tensor":{"dtype":"DT_FLOAT","tensorShape":{}}},"dtype":{"type":"DT_FLOAT"}}},
          {"name":"pass1_block4_mbconv3_skeleton_se_se_squeeze_eswish/mul/x","op":"Const","attr":{"value":{"tensor":{"dtype":"DT_FLOAT","tensorShape":{}}},"dtype":{"type":"DT_FLOAT"}}},
          {"name":"pass1_block4_mbconv3_skeleton_se_se_squeeze_lambda/Mean/reduction_indices","op":"Const","attr":{"value":{"tensor":{"dtype":"DT_INT32","tensorShape":{"dim":[{"size":"2"}]}}},"dtype":{"type":"DT_INT32"}}},
          {"name":"pass1_block4_mbconv3_skeleton_se_se_squeeze_conv/kernel","op":"Const","attr":{"dtype":{"type":"DT_FLOAT"},"value":{"tensor":{"dtype":"DT_FLOAT","tensorShape":{"dim":[{"size":"1"},{"size":"1"},{"size":"480"},{"size":"20"}]}}}}},
          {"name":"pass1_block4_mbconv3_skeleton_se_se_squeeze_conv/bias","op":"Const","attr":{"value":{"tensor":{"dtype":"DT_FLOAT","tensorShape":{"dim":[{"size":"20"}]}}},"dtype":{"type":"DT_FLOAT"}}},
          {"name":"pass1_block4_mbconv3_skeleton_se_se_excite_conv/kernel","op":"Const","attr":{"dtype":{"type":"DT_FLOAT"},"value":{"tensor":{"dtype":"DT_FLOAT","tensorShape":{"dim":[{"size":"1"},{"size":"1"},{"size":"20"},{"size":"480"}]}}}}},
          {"name":"pass1_block4_mbconv3_skeleton_se_se_excite_conv/bias","op":"Const","attr":{"dtype":{"type":"DT_FLOAT"},"value":{"tensor":{"dtype":"DT_FLOAT","tensorShape":{"dim":[{"size":"480"}]}}}}},
          {"name":"pass1_block4_mbconv3_skeleton_dconv1_eswish/mul/x","op":"Const","attr":{"dtype":{"type":"DT_FLOAT"},"value":{"tensor":{"dtype":"DT_FLOAT","tensorShape":{}}}}},
          {"name":"pass1_block4_mbconv3_skeleton_conv1_eswish/mul/x","op":"Const","attr":{"value":{"tensor":{"dtype":"DT_FLOAT","tensorShape":{}}},"dtype":{"type":"DT_FLOAT"}}},
          {"name":"pass1_block4_mbconv2_skeleton_se_se_squeeze_eswish/mul/x","op":"Const","attr":{"value":{"tensor":{"dtype":"DT_FLOAT","tensorShape":{}}},"dtype":{"type":"DT_FLOAT"}}},
          {"name":"pass1_block4_mbconv2_skeleton_se_se_squeeze_lambda/Mean/reduction_indices","op":"Const","attr":{"dtype":{"type":"DT_INT32"},"value":{"tensor":{"dtype":"DT_INT32","tensorShape":{"dim":[{"size":"2"}]}}}}},
          {"name":"pass1_block4_mbconv2_skeleton_se_se_squeeze_conv/kernel","op":"Const","attr":{"value":{"tensor":{"dtype":"DT_FLOAT","tensorShape":{"dim":[{"size":"1"},{"size":"1"},{"size":"480"},{"size":"20"}]}}},"dtype":{"type":"DT_FLOAT"}}},
          {"name":"pass1_block4_mbconv2_skeleton_se_se_squeeze_conv/bias","op":"Const","attr":{"dtype":{"type":"DT_FLOAT"},"value":{"tensor":{"dtype":"DT_FLOAT","tensorShape":{"dim":[{"size":"20"}]}}}}},
          {"name":"pass1_block4_mbconv2_skeleton_se_se_excite_conv/kernel","op":"Const","attr":{"dtype":{"type":"DT_FLOAT"},"value":{"tensor":{"dtype":"DT_FLOAT","tensorShape":{"dim":[{"size":"1"},{"size":"1"},{"size":"20"},{"size":"480"}]}}}}},
          {"name":"pass1_block4_mbconv2_skeleton_se_se_excite_conv/bias","op":"Const","attr":{"dtype":{"type":"DT_FLOAT"},"value":{"tensor":{"dtype":"DT_FLOAT","tensorShape":{"dim":[{"size":"480"}]}}}}},
          {"name":"pass1_block4_mbconv2_skeleton_dconv1_eswish/mul/x","op":"Const","attr":{"dtype":{"type":"DT_FLOAT"},"value":{"tensor":{"dtype":"DT_FLOAT","tensorShape":{}}}}},
          {"name":"pass1_block4_mbconv2_skeleton_conv1_eswish/mul/x","op":"Const","attr":{"value":{"tensor":{"dtype":"DT_FLOAT","tensorShape":{}}},"dtype":{"type":"DT_FLOAT"}}},
          {"name":"pass1_block4_mbconv1_skeleton_se_se_squeeze_eswish/mul/x","op":"Const","attr":{"value":{"tensor":{"dtype":"DT_FLOAT","tensorShape":{}}},"dtype":{"type":"DT_FLOAT"}}},
          {"name":"pass1_block4_mbconv1_skeleton_se_se_squeeze_lambda/Mean/reduction_indices","op":"Const","attr":{"dtype":{"type":"DT_INT32"},"value":{"tensor":{"dtype":"DT_INT32","tensorShape":{"dim":[{"size":"2"}]}}}}},
          {"name":"pass1_block4_mbconv1_skeleton_se_se_squeeze_conv/kernel","op":"Const","attr":{"dtype":{"type":"DT_FLOAT"},"value":{"tensor":{"dtype":"DT_FLOAT","tensorShape":{"dim":[{"size":"1"},{"size":"1"},{"size":"480"},{"size":"20"}]}}}}},
          {"name":"pass1_block4_mbconv1_skeleton_se_se_squeeze_conv/bias","op":"Const","attr":{"dtype":{"type":"DT_FLOAT"},"value":{"tensor":{"dtype":"DT_FLOAT","tensorShape":{"dim":[{"size":"20"}]}}}}},
          {"name":"pass1_block4_mbconv1_skeleton_se_se_excite_conv/kernel","op":"Const","attr":{"value":{"tensor":{"dtype":"DT_FLOAT","tensorShape":{"dim":[{"size":"1"},{"size":"1"},{"size":"20"},{"size":"480"}]}}},"dtype":{"type":"DT_FLOAT"}}},
          {"name":"pass1_block4_mbconv1_skeleton_se_se_excite_conv/bias","op":"Const","attr":{"value":{"tensor":{"dtype":"DT_FLOAT","tensorShape":{"dim":[{"size":"480"}]}}},"dtype":{"type":"DT_FLOAT"}}},
          {"name":"pass1_block4_mbconv1_skeleton_dconv1_eswish/mul/x","op":"Const","attr":{"dtype":{"type":"DT_FLOAT"},"value":{"tensor":{"dtype":"DT_FLOAT","tensorShape":{}}}}},
          {"name":"pass1_block4_mbconv1_skeleton_conv1_eswish/mul/x","op":"Const","attr":{"dtype":{"type":"DT_FLOAT"},"value":{"tensor":{"dtype":"DT_FLOAT","tensorShape":{}}}}},
          {"name":"pass1_block4_mbconv2_skeleton_dense/concat/axis","op":"Const","attr":{"value":{"tensor":{"dtype":"DT_INT32","tensorShape":{}}},"dtype":{"type":"DT_INT32"}}},
          {"name":"pass1_block4_mbconv3_skeleton_dense/concat/axis","op":"Const","attr":{"value":{"tensor":{"dtype":"DT_INT32","tensorShape":{}}},"dtype":{"type":"DT_INT32"}}},
          {"name":"pass1_block3_mbconv3_skeleton_se_se_squeeze_eswish/mul/x","op":"Const","attr":{"dtype":{"type":"DT_FLOAT"},"value":{"tensor":{"dtype":"DT_FLOAT","tensorShape":{}}}}},
          {"name":"pass1_block3_mbconv3_skeleton_se_se_squeeze_lambda/Mean/reduction_indices","op":"Const","attr":{"dtype":{"type":"DT_INT32"},"value":{"tensor":{"dtype":"DT_INT32","tensorShape":{"dim":[{"size":"2"}]}}}}},
          {"name":"pass1_block3_mbconv3_skeleton_se_se_squeeze_conv/kernel","op":"Const","attr":{"dtype":{"type":"DT_FLOAT"},"value":{"tensor":{"dtype":"DT_FLOAT","tensorShape":{"dim":[{"size":"1"},{"size":"1"},{"size":"480"},{"size":"20"}]}}}}},
          {"name":"pass1_block3_mbconv3_skeleton_se_se_squeeze_conv/bias","op":"Const","attr":{"dtype":{"type":"DT_FLOAT"},"value":{"tensor":{"dtype":"DT_FLOAT","tensorShape":{"dim":[{"size":"20"}]}}}}},
          {"name":"pass1_block3_mbconv3_skeleton_se_se_excite_conv/kernel","op":"Const","attr":{"value":{"tensor":{"dtype":"DT_FLOAT","tensorShape":{"dim":[{"size":"1"},{"size":"1"},{"size":"20"},{"size":"480"}]}}},"dtype":{"type":"DT_FLOAT"}}},
          {"name":"pass1_block3_mbconv3_skeleton_se_se_excite_conv/bias","op":"Const","attr":{"value":{"tensor":{"dtype":"DT_FLOAT","tensorShape":{"dim":[{"size":"480"}]}}},"dtype":{"type":"DT_FLOAT"}}},
          {"name":"pass1_block3_mbconv3_skeleton_dconv1_eswish/mul/x","op":"Const","attr":{"dtype":{"type":"DT_FLOAT"},"value":{"tensor":{"dtype":"DT_FLOAT","tensorShape":{}}}}},
          {"name":"pass1_block3_mbconv3_skeleton_conv1_eswish/mul/x","op":"Const","attr":{"value":{"tensor":{"dtype":"DT_FLOAT","tensorShape":{}}},"dtype":{"type":"DT_FLOAT"}}},
          {"name":"pass1_block3_mbconv2_skeleton_se_se_squeeze_eswish/mul/x","op":"Const","attr":{"dtype":{"type":"DT_FLOAT"},"value":{"tensor":{"dtype":"DT_FLOAT","tensorShape":{}}}}},
          {"name":"pass1_block3_mbconv2_skeleton_se_se_squeeze_lambda/Mean/reduction_indices","op":"Const","attr":{"value":{"tensor":{"dtype":"DT_INT32","tensorShape":{"dim":[{"size":"2"}]}}},"dtype":{"type":"DT_INT32"}}},
          {"name":"pass1_block3_mbconv2_skeleton_se_se_squeeze_conv/kernel","op":"Const","attr":{"dtype":{"type":"DT_FLOAT"},"value":{"tensor":{"dtype":"DT_FLOAT","tensorShape":{"dim":[{"size":"1"},{"size":"1"},{"size":"480"},{"size":"20"}]}}}}},
          {"name":"pass1_block3_mbconv2_skeleton_se_se_squeeze_conv/bias","op":"Const","attr":{"dtype":{"type":"DT_FLOAT"},"value":{"tensor":{"dtype":"DT_FLOAT","tensorShape":{"dim":[{"size":"20"}]}}}}},
          {"name":"pass1_block3_mbconv2_skeleton_se_se_excite_conv/kernel","op":"Const","attr":{"value":{"tensor":{"dtype":"DT_FLOAT","tensorShape":{"dim":[{"size":"1"},{"size":"1"},{"size":"20"},{"size":"480"}]}}},"dtype":{"type":"DT_FLOAT"}}},
          {"name":"pass1_block3_mbconv2_skeleton_se_se_excite_conv/bias","op":"Const","attr":{"value":{"tensor":{"dtype":"DT_FLOAT","tensorShape":{"dim":[{"size":"480"}]}}},"dtype":{"type":"DT_FLOAT"}}},
          {"name":"pass1_block3_mbconv2_skeleton_dconv1_eswish/mul/x","op":"Const","attr":{"value":{"tensor":{"dtype":"DT_FLOAT","tensorShape":{}}},"dtype":{"type":"DT_FLOAT"}}},
          {"name":"pass1_block3_mbconv2_skeleton_conv1_eswish/mul/x","op":"Const","attr":{"value":{"tensor":{"dtype":"DT_FLOAT","tensorShape":{}}},"dtype":{"type":"DT_FLOAT"}}},
          {"name":"pass1_block3_mbconv1_skeleton_se_se_squeeze_eswish/mul/x","op":"Const","attr":{"value":{"tensor":{"dtype":"DT_FLOAT","tensorShape":{}}},"dtype":{"type":"DT_FLOAT"}}},
          {"name":"pass1_block3_mbconv1_skeleton_se_se_squeeze_lambda/Mean/reduction_indices","op":"Const","attr":{"value":{"tensor":{"dtype":"DT_INT32","tensorShape":{"dim":[{"size":"2"}]}}},"dtype":{"type":"DT_INT32"}}},
          {"name":"pass1_block3_mbconv1_skeleton_se_se_squeeze_conv/kernel","op":"Const","attr":{"value":{"tensor":{"dtype":"DT_FLOAT","tensorShape":{"dim":[{"size":"1"},{"size":"1"},{"size":"480"},{"size":"20"}]}}},"dtype":{"type":"DT_FLOAT"}}},
          {"name":"pass1_block3_mbconv1_skeleton_se_se_squeeze_conv/bias","op":"Const","attr":{"dtype":{"type":"DT_FLOAT"},"value":{"tensor":{"dtype":"DT_FLOAT","tensorShape":{"dim":[{"size":"20"}]}}}}},
          {"name":"pass1_block3_mbconv1_skeleton_se_se_excite_conv/kernel","op":"Const","attr":{"value":{"tensor":{"dtype":"DT_FLOAT","tensorShape":{"dim":[{"size":"1"},{"size":"1"},{"size":"20"},{"size":"480"}]}}},"dtype":{"type":"DT_FLOAT"}}},
          {"name":"pass1_block3_mbconv1_skeleton_se_se_excite_conv/bias","op":"Const","attr":{"value":{"tensor":{"dtype":"DT_FLOAT","tensorShape":{"dim":[{"size":"480"}]}}},"dtype":{"type":"DT_FLOAT"}}},
          {"name":"pass1_block3_mbconv1_skeleton_dconv1_eswish/mul/x","op":"Const","attr":{"value":{"tensor":{"dtype":"DT_FLOAT","tensorShape":{}}},"dtype":{"type":"DT_FLOAT"}}},
          {"name":"pass1_block3_mbconv1_skeleton_conv1_eswish/mul/x","op":"Const","attr":{"dtype":{"type":"DT_FLOAT"},"value":{"tensor":{"dtype":"DT_FLOAT","tensorShape":{}}}}},
          {"name":"pass1_block3_mbconv2_skeleton_dense/concat/axis","op":"Const","attr":{"value":{"tensor":{"dtype":"DT_INT32","tensorShape":{}}},"dtype":{"type":"DT_INT32"}}},
          {"name":"pass1_block3_mbconv3_skeleton_dense/concat/axis","op":"Const","attr":{"dtype":{"type":"DT_INT32"},"value":{"tensor":{"dtype":"DT_INT32","tensorShape":{}}}}},
          {"name":"pass1_block2_mbconv3_skeleton_se_se_squeeze_eswish/mul/x","op":"Const","attr":{"value":{"tensor":{"dtype":"DT_FLOAT","tensorShape":{}}},"dtype":{"type":"DT_FLOAT"}}},
          {"name":"pass1_block2_mbconv3_skeleton_se_se_squeeze_lambda/Mean/reduction_indices","op":"Const","attr":{"value":{"tensor":{"dtype":"DT_INT32","tensorShape":{"dim":[{"size":"2"}]}}},"dtype":{"type":"DT_INT32"}}},
          {"name":"pass1_block2_mbconv3_skeleton_se_se_squeeze_conv/kernel","op":"Const","attr":{"value":{"tensor":{"dtype":"DT_FLOAT","tensorShape":{"dim":[{"size":"1"},{"size":"1"},{"size":"480"},{"size":"20"}]}}},"dtype":{"type":"DT_FLOAT"}}},
          {"name":"pass1_block2_mbconv3_skeleton_se_se_squeeze_conv/bias","op":"Const","attr":{"value":{"tensor":{"dtype":"DT_FLOAT","tensorShape":{"dim":[{"size":"20"}]}}},"dtype":{"type":"DT_FLOAT"}}},
          {"name":"pass1_block2_mbconv3_skeleton_se_se_excite_conv/kernel","op":"Const","attr":{"value":{"tensor":{"dtype":"DT_FLOAT","tensorShape":{"dim":[{"size":"1"},{"size":"1"},{"size":"20"},{"size":"480"}]}}},"dtype":{"type":"DT_FLOAT"}}},
          {"name":"pass1_block2_mbconv3_skeleton_se_se_excite_conv/bias","op":"Const","attr":{"dtype":{"type":"DT_FLOAT"},"value":{"tensor":{"dtype":"DT_FLOAT","tensorShape":{"dim":[{"size":"480"}]}}}}},
          {"name":"pass1_block2_mbconv3_skeleton_dconv1_eswish/mul/x","op":"Const","attr":{"dtype":{"type":"DT_FLOAT"},"value":{"tensor":{"dtype":"DT_FLOAT","tensorShape":{}}}}},
          {"name":"pass1_block2_mbconv3_skeleton_conv1_eswish/mul/x","op":"Const","attr":{"value":{"tensor":{"dtype":"DT_FLOAT","tensorShape":{}}},"dtype":{"type":"DT_FLOAT"}}},
          {"name":"pass1_block2_mbconv2_skeleton_se_se_squeeze_eswish/mul/x","op":"Const","attr":{"value":{"tensor":{"dtype":"DT_FLOAT","tensorShape":{}}},"dtype":{"type":"DT_FLOAT"}}},
          {"name":"pass1_block2_mbconv2_skeleton_se_se_squeeze_lambda/Mean/reduction_indices","op":"Const","attr":{"value":{"tensor":{"dtype":"DT_INT32","tensorShape":{"dim":[{"size":"2"}]}}},"dtype":{"type":"DT_INT32"}}},
          {"name":"pass1_block2_mbconv2_skeleton_se_se_squeeze_conv/kernel","op":"Const","attr":{"dtype":{"type":"DT_FLOAT"},"value":{"tensor":{"dtype":"DT_FLOAT","tensorShape":{"dim":[{"size":"1"},{"size":"1"},{"size":"480"},{"size":"20"}]}}}}},
          {"name":"pass1_block2_mbconv2_skeleton_se_se_squeeze_conv/bias","op":"Const","attr":{"value":{"tensor":{"dtype":"DT_FLOAT","tensorShape":{"dim":[{"size":"20"}]}}},"dtype":{"type":"DT_FLOAT"}}},
          {"name":"pass1_block2_mbconv2_skeleton_se_se_excite_conv/kernel","op":"Const","attr":{"value":{"tensor":{"dtype":"DT_FLOAT","tensorShape":{"dim":[{"size":"1"},{"size":"1"},{"size":"20"},{"size":"480"}]}}},"dtype":{"type":"DT_FLOAT"}}},
          {"name":"pass1_block2_mbconv2_skeleton_se_se_excite_conv/bias","op":"Const","attr":{"value":{"tensor":{"dtype":"DT_FLOAT","tensorShape":{"dim":[{"size":"480"}]}}},"dtype":{"type":"DT_FLOAT"}}},
          {"name":"pass1_block2_mbconv2_skeleton_dconv1_eswish/mul/x","op":"Const","attr":{"value":{"tensor":{"dtype":"DT_FLOAT","tensorShape":{}}},"dtype":{"type":"DT_FLOAT"}}},
          {"name":"pass1_block2_mbconv2_skeleton_conv1_eswish/mul/x","op":"Const","attr":{"value":{"tensor":{"dtype":"DT_FLOAT","tensorShape":{}}},"dtype":{"type":"DT_FLOAT"}}},
          {"name":"pass1_block2_mbconv1_skeleton_se_se_squeeze_eswish/mul/x","op":"Const","attr":{"value":{"tensor":{"dtype":"DT_FLOAT","tensorShape":{}}},"dtype":{"type":"DT_FLOAT"}}},
          {"name":"pass1_block2_mbconv1_skeleton_se_se_squeeze_lambda/Mean/reduction_indices","op":"Const","attr":{"value":{"tensor":{"dtype":"DT_INT32","tensorShape":{"dim":[{"size":"2"}]}}},"dtype":{"type":"DT_INT32"}}},
          {"name":"pass1_block2_mbconv1_skeleton_se_se_squeeze_conv/kernel","op":"Const","attr":{"dtype":{"type":"DT_FLOAT"},"value":{"tensor":{"dtype":"DT_FLOAT","tensorShape":{"dim":[{"size":"1"},{"size":"1"},{"size":"480"},{"size":"20"}]}}}}},
          {"name":"pass1_block2_mbconv1_skeleton_se_se_squeeze_conv/bias","op":"Const","attr":{"value":{"tensor":{"dtype":"DT_FLOAT","tensorShape":{"dim":[{"size":"20"}]}}},"dtype":{"type":"DT_FLOAT"}}},
          {"name":"pass1_block2_mbconv1_skeleton_se_se_excite_conv/kernel","op":"Const","attr":{"dtype":{"type":"DT_FLOAT"},"value":{"tensor":{"dtype":"DT_FLOAT","tensorShape":{"dim":[{"size":"1"},{"size":"1"},{"size":"20"},{"size":"480"}]}}}}},
          {"name":"pass1_block2_mbconv1_skeleton_se_se_excite_conv/bias","op":"Const","attr":{"value":{"tensor":{"dtype":"DT_FLOAT","tensorShape":{"dim":[{"size":"480"}]}}},"dtype":{"type":"DT_FLOAT"}}},
          {"name":"pass1_block2_mbconv1_skeleton_dconv1_eswish/mul/x","op":"Const","attr":{"value":{"tensor":{"dtype":"DT_FLOAT","tensorShape":{}}},"dtype":{"type":"DT_FLOAT"}}},
          {"name":"pass1_block2_mbconv1_skeleton_conv1_eswish/mul/x","op":"Const","attr":{"value":{"tensor":{"dtype":"DT_FLOAT","tensorShape":{}}},"dtype":{"type":"DT_FLOAT"}}},
          {"name":"pass1_block2_mbconv2_skeleton_dense/concat/axis","op":"Const","attr":{"value":{"tensor":{"dtype":"DT_INT32","tensorShape":{}}},"dtype":{"type":"DT_INT32"}}},
          {"name":"pass1_block2_mbconv3_skeleton_dense/concat/axis","op":"Const","attr":{"value":{"tensor":{"dtype":"DT_INT32","tensorShape":{}}},"dtype":{"type":"DT_INT32"}}},
          {"name":"pass1_block1_mbconv3_skeleton_se_se_squeeze_eswish/mul/x","op":"Const","attr":{"value":{"tensor":{"dtype":"DT_FLOAT","tensorShape":{}}},"dtype":{"type":"DT_FLOAT"}}},
          {"name":"pass1_block1_mbconv3_skeleton_se_se_squeeze_lambda/Mean/reduction_indices","op":"Const","attr":{"dtype":{"type":"DT_INT32"},"value":{"tensor":{"dtype":"DT_INT32","tensorShape":{"dim":[{"size":"2"}]}}}}},
          {"name":"pass1_block1_mbconv3_skeleton_se_se_squeeze_conv/kernel","op":"Const","attr":{"dtype":{"type":"DT_FLOAT"},"value":{"tensor":{"dtype":"DT_FLOAT","tensorShape":{"dim":[{"size":"1"},{"size":"1"},{"size":"480"},{"size":"20"}]}}}}},
          {"name":"pass1_block1_mbconv3_skeleton_se_se_squeeze_conv/bias","op":"Const","attr":{"value":{"tensor":{"dtype":"DT_FLOAT","tensorShape":{"dim":[{"size":"20"}]}}},"dtype":{"type":"DT_FLOAT"}}},
          {"name":"pass1_block1_mbconv3_skeleton_se_se_excite_conv/kernel","op":"Const","attr":{"value":{"tensor":{"dtype":"DT_FLOAT","tensorShape":{"dim":[{"size":"1"},{"size":"1"},{"size":"20"},{"size":"480"}]}}},"dtype":{"type":"DT_FLOAT"}}},
          {"name":"pass1_block1_mbconv3_skeleton_se_se_excite_conv/bias","op":"Const","attr":{"value":{"tensor":{"dtype":"DT_FLOAT","tensorShape":{"dim":[{"size":"480"}]}}},"dtype":{"type":"DT_FLOAT"}}},
          {"name":"pass1_block1_mbconv3_skeleton_dconv1_eswish/mul/x","op":"Const","attr":{"dtype":{"type":"DT_FLOAT"},"value":{"tensor":{"dtype":"DT_FLOAT","tensorShape":{}}}}},
          {"name":"pass1_block1_mbconv3_skeleton_conv1_eswish/mul/x","op":"Const","attr":{"value":{"tensor":{"dtype":"DT_FLOAT","tensorShape":{}}},"dtype":{"type":"DT_FLOAT"}}},
          {"name":"pass1_block1_mbconv2_skeleton_se_se_squeeze_eswish/mul/x","op":"Const","attr":{"dtype":{"type":"DT_FLOAT"},"value":{"tensor":{"dtype":"DT_FLOAT","tensorShape":{}}}}},
          {"name":"pass1_block1_mbconv2_skeleton_se_se_squeeze_lambda/Mean/reduction_indices","op":"Const","attr":{"value":{"tensor":{"dtype":"DT_INT32","tensorShape":{"dim":[{"size":"2"}]}}},"dtype":{"type":"DT_INT32"}}},
          {"name":"pass1_block1_mbconv2_skeleton_se_se_squeeze_conv/kernel","op":"Const","attr":{"value":{"tensor":{"dtype":"DT_FLOAT","tensorShape":{"dim":[{"size":"1"},{"size":"1"},{"size":"480"},{"size":"20"}]}}},"dtype":{"type":"DT_FLOAT"}}},
          {"name":"pass1_block1_mbconv2_skeleton_se_se_squeeze_conv/bias","op":"Const","attr":{"dtype":{"type":"DT_FLOAT"},"value":{"tensor":{"dtype":"DT_FLOAT","tensorShape":{"dim":[{"size":"20"}]}}}}},
          {"name":"pass1_block1_mbconv2_skeleton_se_se_excite_conv/kernel","op":"Const","attr":{"dtype":{"type":"DT_FLOAT"},"value":{"tensor":{"dtype":"DT_FLOAT","tensorShape":{"dim":[{"size":"1"},{"size":"1"},{"size":"20"},{"size":"480"}]}}}}},
          {"name":"pass1_block1_mbconv2_skeleton_se_se_excite_conv/bias","op":"Const","attr":{"value":{"tensor":{"dtype":"DT_FLOAT","tensorShape":{"dim":[{"size":"480"}]}}},"dtype":{"type":"DT_FLOAT"}}},
          {"name":"pass1_block1_mbconv2_skeleton_dconv1_eswish/mul/x","op":"Const","attr":{"dtype":{"type":"DT_FLOAT"},"value":{"tensor":{"dtype":"DT_FLOAT","tensorShape":{}}}}},
          {"name":"pass1_block1_mbconv2_skeleton_conv1_eswish/mul/x","op":"Const","attr":{"value":{"tensor":{"dtype":"DT_FLOAT","tensorShape":{}}},"dtype":{"type":"DT_FLOAT"}}},
          {"name":"pass1_block1_mbconv1_skeleton_se_se_squeeze_eswish/mul/x","op":"Const","attr":{"value":{"tensor":{"dtype":"DT_FLOAT","tensorShape":{}}},"dtype":{"type":"DT_FLOAT"}}},
          {"name":"pass1_block1_mbconv1_skeleton_se_se_squeeze_lambda/Mean/reduction_indices","op":"Const","attr":{"dtype":{"type":"DT_INT32"},"value":{"tensor":{"dtype":"DT_INT32","tensorShape":{"dim":[{"size":"2"}]}}}}},
          {"name":"pass1_block1_mbconv1_skeleton_se_se_squeeze_conv/kernel","op":"Const","attr":{"dtype":{"type":"DT_FLOAT"},"value":{"tensor":{"dtype":"DT_FLOAT","tensorShape":{"dim":[{"size":"1"},{"size":"1"},{"size":"480"},{"size":"20"}]}}}}},
          {"name":"pass1_block1_mbconv1_skeleton_se_se_squeeze_conv/bias","op":"Const","attr":{"dtype":{"type":"DT_FLOAT"},"value":{"tensor":{"dtype":"DT_FLOAT","tensorShape":{"dim":[{"size":"20"}]}}}}},
          {"name":"pass1_block1_mbconv1_skeleton_se_se_excite_conv/kernel","op":"Const","attr":{"dtype":{"type":"DT_FLOAT"},"value":{"tensor":{"dtype":"DT_FLOAT","tensorShape":{"dim":[{"size":"1"},{"size":"1"},{"size":"20"},{"size":"480"}]}}}}},
          {"name":"pass1_block1_mbconv1_skeleton_se_se_excite_conv/bias","op":"Const","attr":{"dtype":{"type":"DT_FLOAT"},"value":{"tensor":{"dtype":"DT_FLOAT","tensorShape":{"dim":[{"size":"480"}]}}}}},
          {"name":"pass1_block1_mbconv1_skeleton_dconv1_eswish/mul/x","op":"Const","attr":{"value":{"tensor":{"dtype":"DT_FLOAT","tensorShape":{}}},"dtype":{"type":"DT_FLOAT"}}},
          {"name":"pass1_block1_mbconv1_skeleton_conv1_eswish/mul/x","op":"Const","attr":{"dtype":{"type":"DT_FLOAT"},"value":{"tensor":{"dtype":"DT_FLOAT","tensorShape":{}}}}},
          {"name":"concatenate_1/concat/axis","op":"Const","attr":{"value":{"tensor":{"dtype":"DT_INT32","tensorShape":{}}},"dtype":{"type":"DT_INT32"}}},
          {"name":"pass1_block1_mbconv2_skeleton_dense/concat/axis","op":"Const","attr":{"dtype":{"type":"DT_INT32"},"value":{"tensor":{"dtype":"DT_INT32","tensorShape":{}}}}},
          {"name":"pass1_block1_mbconv3_skeleton_dense/concat/axis","op":"Const","attr":{"value":{"tensor":{"dtype":"DT_INT32","tensorShape":{}}},"dtype":{"type":"DT_INT32"}}},
          {"name":"concatenate_2/concat/axis","op":"Const","attr":{"dtype":{"type":"DT_INT32"},"value":{"tensor":{"dtype":"DT_INT32","tensorShape":{}}}}},
          {"name":"pass2_block1_mbconv2_detection1_dense/concat/axis","op":"Const","attr":{"value":{"tensor":{"dtype":"DT_INT32","tensorShape":{}}},"dtype":{"type":"DT_INT32"}}},
          {"name":"pass2_block1_mbconv3_detection1_dense/concat/axis","op":"Const","attr":{"value":{"tensor":{"dtype":"DT_INT32","tensorShape":{}}},"dtype":{"type":"DT_INT32"}}},
          {"name":"block3g_se_squeeze_res1/Mean/reduction_indices","op":"Const","attr":{"dtype":{"type":"DT_INT32"},"value":{"tensor":{"dtype":"DT_INT32","tensorShape":{"dim":[{"size":"2"}]}}}}},
          {"name":"block3g_se_reshape_res1/strided_slice/stack","op":"Const","attr":{"value":{"tensor":{"dtype":"DT_INT32","tensorShape":{"dim":[{"size":"1"}]}}},"dtype":{"type":"DT_INT32"}}},
          {"name":"block3g_se_reshape_res1/strided_slice/stack_1","op":"Const","attr":{"value":{"tensor":{"dtype":"DT_INT32","tensorShape":{"dim":[{"size":"1"}]}}},"dtype":{"type":"DT_INT32"}}},
          {"name":"block3g_se_reshape_res1/strided_slice/stack_2","op":"Const","attr":{"dtype":{"type":"DT_INT32"},"value":{"tensor":{"dtype":"DT_INT32","tensorShape":{"dim":[{"size":"1"}]}}}}},
          {"name":"block3g_se_reshape_res1/Reshape/shape/1","op":"Const","attr":{"dtype":{"type":"DT_INT32"},"value":{"tensor":{"dtype":"DT_INT32","tensorShape":{}}}}},
          {"name":"block3g_se_reshape_res1/Reshape/shape/2","op":"Const","attr":{"value":{"tensor":{"dtype":"DT_INT32","tensorShape":{}}},"dtype":{"type":"DT_INT32"}}},
          {"name":"block3g_se_reshape_res1/Reshape/shape/3","op":"Const","attr":{"value":{"tensor":{"dtype":"DT_INT32","tensorShape":{}}},"dtype":{"type":"DT_INT32"}}},
          {"name":"block3g_se_reduce_res1/kernel","op":"Const","attr":{"dtype":{"type":"DT_FLOAT"},"value":{"tensor":{"dtype":"DT_FLOAT","tensorShape":{"dim":[{"size":"1"},{"size":"1"},{"size":"480"},{"size":"20"}]}}}}},
          {"name":"block3g_se_reduce_res1/bias","op":"Const","attr":{"value":{"tensor":{"dtype":"DT_FLOAT","tensorShape":{"dim":[{"size":"20"}]}}},"dtype":{"type":"DT_FLOAT"}}},
          {"name":"block3g_se_expand_res1/kernel","op":"Const","attr":{"value":{"tensor":{"dtype":"DT_FLOAT","tensorShape":{"dim":[{"size":"1"},{"size":"1"},{"size":"20"},{"size":"480"}]}}},"dtype":{"type":"DT_FLOAT"}}},
          {"name":"block3g_se_expand_res1/bias","op":"Const","attr":{"dtype":{"type":"DT_FLOAT"},"value":{"tensor":{"dtype":"DT_FLOAT","tensorShape":{"dim":[{"size":"480"}]}}}}},
          {"name":"block3f_se_squeeze_res1/Mean/reduction_indices","op":"Const","attr":{"value":{"tensor":{"dtype":"DT_INT32","tensorShape":{"dim":[{"size":"2"}]}}},"dtype":{"type":"DT_INT32"}}},
          {"name":"block3f_se_reshape_res1/strided_slice/stack","op":"Const","attr":{"value":{"tensor":{"dtype":"DT_INT32","tensorShape":{"dim":[{"size":"1"}]}}},"dtype":{"type":"DT_INT32"}}},
          {"name":"block3f_se_reshape_res1/strided_slice/stack_1","op":"Const","attr":{"dtype":{"type":"DT_INT32"},"value":{"tensor":{"dtype":"DT_INT32","tensorShape":{"dim":[{"size":"1"}]}}}}},
          {"name":"block3f_se_reshape_res1/strided_slice/stack_2","op":"Const","attr":{"value":{"tensor":{"dtype":"DT_INT32","tensorShape":{"dim":[{"size":"1"}]}}},"dtype":{"type":"DT_INT32"}}},
          {"name":"block3f_se_reshape_res1/Reshape/shape/1","op":"Const","attr":{"value":{"tensor":{"dtype":"DT_INT32","tensorShape":{}}},"dtype":{"type":"DT_INT32"}}},
          {"name":"block3f_se_reshape_res1/Reshape/shape/2","op":"Const","attr":{"dtype":{"type":"DT_INT32"},"value":{"tensor":{"dtype":"DT_INT32","tensorShape":{}}}}},
          {"name":"block3f_se_reshape_res1/Reshape/shape/3","op":"Const","attr":{"dtype":{"type":"DT_INT32"},"value":{"tensor":{"dtype":"DT_INT32","tensorShape":{}}}}},
          {"name":"block3f_se_reduce_res1/kernel","op":"Const","attr":{"dtype":{"type":"DT_FLOAT"},"value":{"tensor":{"dtype":"DT_FLOAT","tensorShape":{"dim":[{"size":"1"},{"size":"1"},{"size":"480"},{"size":"20"}]}}}}},
          {"name":"block3f_se_reduce_res1/bias","op":"Const","attr":{"dtype":{"type":"DT_FLOAT"},"value":{"tensor":{"dtype":"DT_FLOAT","tensorShape":{"dim":[{"size":"20"}]}}}}},
          {"name":"block3f_se_expand_res1/kernel","op":"Const","attr":{"dtype":{"type":"DT_FLOAT"},"value":{"tensor":{"dtype":"DT_FLOAT","tensorShape":{"dim":[{"size":"1"},{"size":"1"},{"size":"20"},{"size":"480"}]}}}}},
          {"name":"block3f_se_expand_res1/bias","op":"Const","attr":{"dtype":{"type":"DT_FLOAT"},"value":{"tensor":{"dtype":"DT_FLOAT","tensorShape":{"dim":[{"size":"480"}]}}}}},
          {"name":"block3e_se_squeeze_res1/Mean/reduction_indices","op":"Const","attr":{"dtype":{"type":"DT_INT32"},"value":{"tensor":{"dtype":"DT_INT32","tensorShape":{"dim":[{"size":"2"}]}}}}},
          {"name":"block3e_se_reshape_res1/strided_slice/stack","op":"Const","attr":{"dtype":{"type":"DT_INT32"},"value":{"tensor":{"dtype":"DT_INT32","tensorShape":{"dim":[{"size":"1"}]}}}}},
          {"name":"block3e_se_reshape_res1/strided_slice/stack_1","op":"Const","attr":{"value":{"tensor":{"dtype":"DT_INT32","tensorShape":{"dim":[{"size":"1"}]}}},"dtype":{"type":"DT_INT32"}}},
          {"name":"block3e_se_reshape_res1/strided_slice/stack_2","op":"Const","attr":{"value":{"tensor":{"dtype":"DT_INT32","tensorShape":{"dim":[{"size":"1"}]}}},"dtype":{"type":"DT_INT32"}}},
          {"name":"block3e_se_reshape_res1/Reshape/shape/1","op":"Const","attr":{"dtype":{"type":"DT_INT32"},"value":{"tensor":{"dtype":"DT_INT32","tensorShape":{}}}}},
          {"name":"block3e_se_reshape_res1/Reshape/shape/2","op":"Const","attr":{"dtype":{"type":"DT_INT32"},"value":{"tensor":{"dtype":"DT_INT32","tensorShape":{}}}}},
          {"name":"block3e_se_reshape_res1/Reshape/shape/3","op":"Const","attr":{"dtype":{"type":"DT_INT32"},"value":{"tensor":{"dtype":"DT_INT32","tensorShape":{}}}}},
          {"name":"block3e_se_reduce_res1/kernel","op":"Const","attr":{"dtype":{"type":"DT_FLOAT"},"value":{"tensor":{"dtype":"DT_FLOAT","tensorShape":{"dim":[{"size":"1"},{"size":"1"},{"size":"480"},{"size":"20"}]}}}}},
          {"name":"block3e_se_reduce_res1/bias","op":"Const","attr":{"dtype":{"type":"DT_FLOAT"},"value":{"tensor":{"dtype":"DT_FLOAT","tensorShape":{"dim":[{"size":"20"}]}}}}},
          {"name":"block3e_se_expand_res1/kernel","op":"Const","attr":{"value":{"tensor":{"dtype":"DT_FLOAT","tensorShape":{"dim":[{"size":"1"},{"size":"1"},{"size":"20"},{"size":"480"}]}}},"dtype":{"type":"DT_FLOAT"}}},
          {"name":"block3e_se_expand_res1/bias","op":"Const","attr":{"dtype":{"type":"DT_FLOAT"},"value":{"tensor":{"dtype":"DT_FLOAT","tensorShape":{"dim":[{"size":"480"}]}}}}},
          {"name":"block3d_se_squeeze_res1/Mean/reduction_indices","op":"Const","attr":{"value":{"tensor":{"dtype":"DT_INT32","tensorShape":{"dim":[{"size":"2"}]}}},"dtype":{"type":"DT_INT32"}}},
          {"name":"block3d_se_reshape_res1/strided_slice/stack","op":"Const","attr":{"value":{"tensor":{"dtype":"DT_INT32","tensorShape":{"dim":[{"size":"1"}]}}},"dtype":{"type":"DT_INT32"}}},
          {"name":"block3d_se_reshape_res1/strided_slice/stack_1","op":"Const","attr":{"dtype":{"type":"DT_INT32"},"value":{"tensor":{"dtype":"DT_INT32","tensorShape":{"dim":[{"size":"1"}]}}}}},
          {"name":"block3d_se_reshape_res1/strided_slice/stack_2","op":"Const","attr":{"value":{"tensor":{"dtype":"DT_INT32","tensorShape":{"dim":[{"size":"1"}]}}},"dtype":{"type":"DT_INT32"}}},
          {"name":"block3d_se_reshape_res1/Reshape/shape/1","op":"Const","attr":{"dtype":{"type":"DT_INT32"},"value":{"tensor":{"dtype":"DT_INT32","tensorShape":{}}}}},
          {"name":"block3d_se_reshape_res1/Reshape/shape/2","op":"Const","attr":{"value":{"tensor":{"dtype":"DT_INT32","tensorShape":{}}},"dtype":{"type":"DT_INT32"}}},
          {"name":"block3d_se_reshape_res1/Reshape/shape/3","op":"Const","attr":{"value":{"tensor":{"dtype":"DT_INT32","tensorShape":{}}},"dtype":{"type":"DT_INT32"}}},
          {"name":"block3d_se_reduce_res1/kernel","op":"Const","attr":{"value":{"tensor":{"dtype":"DT_FLOAT","tensorShape":{"dim":[{"size":"1"},{"size":"1"},{"size":"480"},{"size":"20"}]}}},"dtype":{"type":"DT_FLOAT"}}},
          {"name":"block3d_se_reduce_res1/bias","op":"Const","attr":{"value":{"tensor":{"dtype":"DT_FLOAT","tensorShape":{"dim":[{"size":"20"}]}}},"dtype":{"type":"DT_FLOAT"}}},
          {"name":"block3d_se_expand_res1/kernel","op":"Const","attr":{"value":{"tensor":{"dtype":"DT_FLOAT","tensorShape":{"dim":[{"size":"1"},{"size":"1"},{"size":"20"},{"size":"480"}]}}},"dtype":{"type":"DT_FLOAT"}}},
          {"name":"block3d_se_expand_res1/bias","op":"Const","attr":{"value":{"tensor":{"dtype":"DT_FLOAT","tensorShape":{"dim":[{"size":"480"}]}}},"dtype":{"type":"DT_FLOAT"}}},
          {"name":"block3c_se_squeeze_res1/Mean/reduction_indices","op":"Const","attr":{"dtype":{"type":"DT_INT32"},"value":{"tensor":{"dtype":"DT_INT32","tensorShape":{"dim":[{"size":"2"}]}}}}},
          {"name":"block3c_se_reshape_res1/strided_slice/stack","op":"Const","attr":{"value":{"tensor":{"dtype":"DT_INT32","tensorShape":{"dim":[{"size":"1"}]}}},"dtype":{"type":"DT_INT32"}}},
          {"name":"block3c_se_reshape_res1/strided_slice/stack_1","op":"Const","attr":{"value":{"tensor":{"dtype":"DT_INT32","tensorShape":{"dim":[{"size":"1"}]}}},"dtype":{"type":"DT_INT32"}}},
          {"name":"block3c_se_reshape_res1/strided_slice/stack_2","op":"Const","attr":{"value":{"tensor":{"dtype":"DT_INT32","tensorShape":{"dim":[{"size":"1"}]}}},"dtype":{"type":"DT_INT32"}}},
          {"name":"block3c_se_reshape_res1/Reshape/shape/1","op":"Const","attr":{"dtype":{"type":"DT_INT32"},"value":{"tensor":{"dtype":"DT_INT32","tensorShape":{}}}}},
          {"name":"block3c_se_reshape_res1/Reshape/shape/2","op":"Const","attr":{"dtype":{"type":"DT_INT32"},"value":{"tensor":{"dtype":"DT_INT32","tensorShape":{}}}}},
          {"name":"block3c_se_reshape_res1/Reshape/shape/3","op":"Const","attr":{"dtype":{"type":"DT_INT32"},"value":{"tensor":{"dtype":"DT_INT32","tensorShape":{}}}}},
          {"name":"block3c_se_reduce_res1/kernel","op":"Const","attr":{"value":{"tensor":{"dtype":"DT_FLOAT","tensorShape":{"dim":[{"size":"1"},{"size":"1"},{"size":"480"},{"size":"20"}]}}},"dtype":{"type":"DT_FLOAT"}}},
          {"name":"block3c_se_reduce_res1/bias","op":"Const","attr":{"dtype":{"type":"DT_FLOAT"},"value":{"tensor":{"dtype":"DT_FLOAT","tensorShape":{"dim":[{"size":"20"}]}}}}},
          {"name":"block3c_se_expand_res1/kernel","op":"Const","attr":{"value":{"tensor":{"dtype":"DT_FLOAT","tensorShape":{"dim":[{"size":"1"},{"size":"1"},{"size":"20"},{"size":"480"}]}}},"dtype":{"type":"DT_FLOAT"}}},
          {"name":"block3c_se_expand_res1/bias","op":"Const","attr":{"dtype":{"type":"DT_FLOAT"},"value":{"tensor":{"dtype":"DT_FLOAT","tensorShape":{"dim":[{"size":"480"}]}}}}},
          {"name":"block3b_se_squeeze_res1/Mean/reduction_indices","op":"Const","attr":{"dtype":{"type":"DT_INT32"},"value":{"tensor":{"dtype":"DT_INT32","tensorShape":{"dim":[{"size":"2"}]}}}}},
          {"name":"block3b_se_reshape_res1/strided_slice/stack","op":"Const","attr":{"value":{"tensor":{"dtype":"DT_INT32","tensorShape":{"dim":[{"size":"1"}]}}},"dtype":{"type":"DT_INT32"}}},
          {"name":"block3b_se_reshape_res1/strided_slice/stack_1","op":"Const","attr":{"dtype":{"type":"DT_INT32"},"value":{"tensor":{"dtype":"DT_INT32","tensorShape":{"dim":[{"size":"1"}]}}}}},
          {"name":"block3b_se_reshape_res1/strided_slice/stack_2","op":"Const","attr":{"value":{"tensor":{"dtype":"DT_INT32","tensorShape":{"dim":[{"size":"1"}]}}},"dtype":{"type":"DT_INT32"}}},
          {"name":"block3b_se_reshape_res1/Reshape/shape/1","op":"Const","attr":{"dtype":{"type":"DT_INT32"},"value":{"tensor":{"dtype":"DT_INT32","tensorShape":{}}}}},
          {"name":"block3b_se_reshape_res1/Reshape/shape/2","op":"Const","attr":{"dtype":{"type":"DT_INT32"},"value":{"tensor":{"dtype":"DT_INT32","tensorShape":{}}}}},
          {"name":"block3b_se_reshape_res1/Reshape/shape/3","op":"Const","attr":{"dtype":{"type":"DT_INT32"},"value":{"tensor":{"dtype":"DT_INT32","tensorShape":{}}}}},
          {"name":"block3b_se_reduce_res1/kernel","op":"Const","attr":{"value":{"tensor":{"dtype":"DT_FLOAT","tensorShape":{"dim":[{"size":"1"},{"size":"1"},{"size":"480"},{"size":"20"}]}}},"dtype":{"type":"DT_FLOAT"}}},
          {"name":"block3b_se_reduce_res1/bias","op":"Const","attr":{"dtype":{"type":"DT_FLOAT"},"value":{"tensor":{"dtype":"DT_FLOAT","tensorShape":{"dim":[{"size":"20"}]}}}}},
          {"name":"block3b_se_expand_res1/kernel","op":"Const","attr":{"dtype":{"type":"DT_FLOAT"},"value":{"tensor":{"dtype":"DT_FLOAT","tensorShape":{"dim":[{"size":"1"},{"size":"1"},{"size":"20"},{"size":"480"}]}}}}},
          {"name":"block3b_se_expand_res1/bias","op":"Const","attr":{"dtype":{"type":"DT_FLOAT"},"value":{"tensor":{"dtype":"DT_FLOAT","tensorShape":{"dim":[{"size":"480"}]}}}}},
          {"name":"block2g_se_squeeze_res1/Mean/reduction_indices","op":"Const","attr":{"dtype":{"type":"DT_INT32"},"value":{"tensor":{"dtype":"DT_INT32","tensorShape":{"dim":[{"size":"2"}]}}}}},
          {"name":"block2g_se_reshape_res1/strided_slice/stack","op":"Const","attr":{"dtype":{"type":"DT_INT32"},"value":{"tensor":{"dtype":"DT_INT32","tensorShape":{"dim":[{"size":"1"}]}}}}},
          {"name":"block2g_se_reshape_res1/strided_slice/stack_1","op":"Const","attr":{"dtype":{"type":"DT_INT32"},"value":{"tensor":{"dtype":"DT_INT32","tensorShape":{"dim":[{"size":"1"}]}}}}},
          {"name":"block2g_se_reshape_res1/strided_slice/stack_2","op":"Const","attr":{"value":{"tensor":{"dtype":"DT_INT32","tensorShape":{"dim":[{"size":"1"}]}}},"dtype":{"type":"DT_INT32"}}},
          {"name":"block2g_se_reshape_res1/Reshape/shape/1","op":"Const","attr":{"value":{"tensor":{"dtype":"DT_INT32","tensorShape":{}}},"dtype":{"type":"DT_INT32"}}},
          {"name":"block2g_se_reshape_res1/Reshape/shape/2","op":"Const","attr":{"value":{"tensor":{"dtype":"DT_INT32","tensorShape":{}}},"dtype":{"type":"DT_INT32"}}},
          {"name":"block2g_se_reshape_res1/Reshape/shape/3","op":"Const","attr":{"dtype":{"type":"DT_INT32"},"value":{"tensor":{"dtype":"DT_INT32","tensorShape":{}}}}},
          {"name":"block2g_se_reduce_res1/kernel","op":"Const","attr":{"dtype":{"type":"DT_FLOAT"},"value":{"tensor":{"dtype":"DT_FLOAT","tensorShape":{"dim":[{"size":"1"},{"size":"1"},{"size":"288"},{"size":"12"}]}}}}},
          {"name":"block2g_se_reduce_res1/bias","op":"Const","attr":{"value":{"tensor":{"dtype":"DT_FLOAT","tensorShape":{"dim":[{"size":"12"}]}}},"dtype":{"type":"DT_FLOAT"}}},
          {"name":"block2g_se_expand_res1/kernel","op":"Const","attr":{"value":{"tensor":{"dtype":"DT_FLOAT","tensorShape":{"dim":[{"size":"1"},{"size":"1"},{"size":"12"},{"size":"288"}]}}},"dtype":{"type":"DT_FLOAT"}}},
          {"name":"block2g_se_expand_res1/bias","op":"Const","attr":{"dtype":{"type":"DT_FLOAT"},"value":{"tensor":{"dtype":"DT_FLOAT","tensorShape":{"dim":[{"size":"288"}]}}}}},
          {"name":"block2f_se_squeeze_res1/Mean/reduction_indices","op":"Const","attr":{"value":{"tensor":{"dtype":"DT_INT32","tensorShape":{"dim":[{"size":"2"}]}}},"dtype":{"type":"DT_INT32"}}},
          {"name":"block2f_se_reshape_res1/strided_slice/stack","op":"Const","attr":{"dtype":{"type":"DT_INT32"},"value":{"tensor":{"dtype":"DT_INT32","tensorShape":{"dim":[{"size":"1"}]}}}}},
          {"name":"block2f_se_reshape_res1/strided_slice/stack_1","op":"Const","attr":{"dtype":{"type":"DT_INT32"},"value":{"tensor":{"dtype":"DT_INT32","tensorShape":{"dim":[{"size":"1"}]}}}}},
          {"name":"block2f_se_reshape_res1/strided_slice/stack_2","op":"Const","attr":{"dtype":{"type":"DT_INT32"},"value":{"tensor":{"dtype":"DT_INT32","tensorShape":{"dim":[{"size":"1"}]}}}}},
          {"name":"block2f_se_reshape_res1/Reshape/shape/1","op":"Const","attr":{"value":{"tensor":{"dtype":"DT_INT32","tensorShape":{}}},"dtype":{"type":"DT_INT32"}}},
          {"name":"block2f_se_reshape_res1/Reshape/shape/2","op":"Const","attr":{"value":{"tensor":{"dtype":"DT_INT32","tensorShape":{}}},"dtype":{"type":"DT_INT32"}}},
          {"name":"block2f_se_reshape_res1/Reshape/shape/3","op":"Const","attr":{"value":{"tensor":{"dtype":"DT_INT32","tensorShape":{}}},"dtype":{"type":"DT_INT32"}}},
          {"name":"block2f_se_reduce_res1/kernel","op":"Const","attr":{"value":{"tensor":{"dtype":"DT_FLOAT","tensorShape":{"dim":[{"size":"1"},{"size":"1"},{"size":"288"},{"size":"12"}]}}},"dtype":{"type":"DT_FLOAT"}}},
          {"name":"block2f_se_reduce_res1/bias","op":"Const","attr":{"value":{"tensor":{"dtype":"DT_FLOAT","tensorShape":{"dim":[{"size":"12"}]}}},"dtype":{"type":"DT_FLOAT"}}},
          {"name":"block2f_se_expand_res1/kernel","op":"Const","attr":{"dtype":{"type":"DT_FLOAT"},"value":{"tensor":{"dtype":"DT_FLOAT","tensorShape":{"dim":[{"size":"1"},{"size":"1"},{"size":"12"},{"size":"288"}]}}}}},
          {"name":"block2f_se_expand_res1/bias","op":"Const","attr":{"value":{"tensor":{"dtype":"DT_FLOAT","tensorShape":{"dim":[{"size":"288"}]}}},"dtype":{"type":"DT_FLOAT"}}},
          {"name":"block2e_se_squeeze_res1/Mean/reduction_indices","op":"Const","attr":{"value":{"tensor":{"dtype":"DT_INT32","tensorShape":{"dim":[{"size":"2"}]}}},"dtype":{"type":"DT_INT32"}}},
          {"name":"block2e_se_reshape_res1/strided_slice/stack","op":"Const","attr":{"dtype":{"type":"DT_INT32"},"value":{"tensor":{"dtype":"DT_INT32","tensorShape":{"dim":[{"size":"1"}]}}}}},
          {"name":"block2e_se_reshape_res1/strided_slice/stack_1","op":"Const","attr":{"dtype":{"type":"DT_INT32"},"value":{"tensor":{"dtype":"DT_INT32","tensorShape":{"dim":[{"size":"1"}]}}}}},
          {"name":"block2e_se_reshape_res1/strided_slice/stack_2","op":"Const","attr":{"dtype":{"type":"DT_INT32"},"value":{"tensor":{"dtype":"DT_INT32","tensorShape":{"dim":[{"size":"1"}]}}}}},
          {"name":"block2e_se_reshape_res1/Reshape/shape/1","op":"Const","attr":{"dtype":{"type":"DT_INT32"},"value":{"tensor":{"dtype":"DT_INT32","tensorShape":{}}}}},
          {"name":"block2e_se_reshape_res1/Reshape/shape/2","op":"Const","attr":{"dtype":{"type":"DT_INT32"},"value":{"tensor":{"dtype":"DT_INT32","tensorShape":{}}}}},
          {"name":"block2e_se_reshape_res1/Reshape/shape/3","op":"Const","attr":{"value":{"tensor":{"dtype":"DT_INT32","tensorShape":{}}},"dtype":{"type":"DT_INT32"}}},
          {"name":"block2e_se_reduce_res1/kernel","op":"Const","attr":{"value":{"tensor":{"dtype":"DT_FLOAT","tensorShape":{"dim":[{"size":"1"},{"size":"1"},{"size":"288"},{"size":"12"}]}}},"dtype":{"type":"DT_FLOAT"}}},
          {"name":"block2e_se_reduce_res1/bias","op":"Const","attr":{"dtype":{"type":"DT_FLOAT"},"value":{"tensor":{"dtype":"DT_FLOAT","tensorShape":{"dim":[{"size":"12"}]}}}}},
          {"name":"block2e_se_expand_res1/kernel","op":"Const","attr":{"value":{"tensor":{"dtype":"DT_FLOAT","tensorShape":{"dim":[{"size":"1"},{"size":"1"},{"size":"12"},{"size":"288"}]}}},"dtype":{"type":"DT_FLOAT"}}},
          {"name":"block2e_se_expand_res1/bias","op":"Const","attr":{"value":{"tensor":{"dtype":"DT_FLOAT","tensorShape":{"dim":[{"size":"288"}]}}},"dtype":{"type":"DT_FLOAT"}}},
          {"name":"block2d_se_squeeze_res1/Mean/reduction_indices","op":"Const","attr":{"dtype":{"type":"DT_INT32"},"value":{"tensor":{"dtype":"DT_INT32","tensorShape":{"dim":[{"size":"2"}]}}}}},
          {"name":"block2d_se_reshape_res1/strided_slice/stack","op":"Const","attr":{"dtype":{"type":"DT_INT32"},"value":{"tensor":{"dtype":"DT_INT32","tensorShape":{"dim":[{"size":"1"}]}}}}},
          {"name":"block2d_se_reshape_res1/strided_slice/stack_1","op":"Const","attr":{"value":{"tensor":{"dtype":"DT_INT32","tensorShape":{"dim":[{"size":"1"}]}}},"dtype":{"type":"DT_INT32"}}},
          {"name":"block2d_se_reshape_res1/strided_slice/stack_2","op":"Const","attr":{"value":{"tensor":{"dtype":"DT_INT32","tensorShape":{"dim":[{"size":"1"}]}}},"dtype":{"type":"DT_INT32"}}},
          {"name":"block2d_se_reshape_res1/Reshape/shape/1","op":"Const","attr":{"value":{"tensor":{"dtype":"DT_INT32","tensorShape":{}}},"dtype":{"type":"DT_INT32"}}},
          {"name":"block2d_se_reshape_res1/Reshape/shape/2","op":"Const","attr":{"dtype":{"type":"DT_INT32"},"value":{"tensor":{"dtype":"DT_INT32","tensorShape":{}}}}},
          {"name":"block2d_se_reshape_res1/Reshape/shape/3","op":"Const","attr":{"value":{"tensor":{"dtype":"DT_INT32","tensorShape":{}}},"dtype":{"type":"DT_INT32"}}},
          {"name":"block2d_se_reduce_res1/kernel","op":"Const","attr":{"value":{"tensor":{"dtype":"DT_FLOAT","tensorShape":{"dim":[{"size":"1"},{"size":"1"},{"size":"288"},{"size":"12"}]}}},"dtype":{"type":"DT_FLOAT"}}},
          {"name":"block2d_se_reduce_res1/bias","op":"Const","attr":{"dtype":{"type":"DT_FLOAT"},"value":{"tensor":{"dtype":"DT_FLOAT","tensorShape":{"dim":[{"size":"12"}]}}}}},
          {"name":"block2d_se_expand_res1/kernel","op":"Const","attr":{"dtype":{"type":"DT_FLOAT"},"value":{"tensor":{"dtype":"DT_FLOAT","tensorShape":{"dim":[{"size":"1"},{"size":"1"},{"size":"12"},{"size":"288"}]}}}}},
          {"name":"block2d_se_expand_res1/bias","op":"Const","attr":{"value":{"tensor":{"dtype":"DT_FLOAT","tensorShape":{"dim":[{"size":"288"}]}}},"dtype":{"type":"DT_FLOAT"}}},
          {"name":"block2c_se_squeeze_res1/Mean/reduction_indices","op":"Const","attr":{"value":{"tensor":{"dtype":"DT_INT32","tensorShape":{"dim":[{"size":"2"}]}}},"dtype":{"type":"DT_INT32"}}},
          {"name":"block2c_se_reshape_res1/strided_slice/stack","op":"Const","attr":{"value":{"tensor":{"dtype":"DT_INT32","tensorShape":{"dim":[{"size":"1"}]}}},"dtype":{"type":"DT_INT32"}}},
          {"name":"block2c_se_reshape_res1/strided_slice/stack_1","op":"Const","attr":{"value":{"tensor":{"dtype":"DT_INT32","tensorShape":{"dim":[{"size":"1"}]}}},"dtype":{"type":"DT_INT32"}}},
          {"name":"block2c_se_reshape_res1/strided_slice/stack_2","op":"Const","attr":{"value":{"tensor":{"dtype":"DT_INT32","tensorShape":{"dim":[{"size":"1"}]}}},"dtype":{"type":"DT_INT32"}}},
          {"name":"block2c_se_reshape_res1/Reshape/shape/1","op":"Const","attr":{"dtype":{"type":"DT_INT32"},"value":{"tensor":{"dtype":"DT_INT32","tensorShape":{}}}}},
          {"name":"block2c_se_reshape_res1/Reshape/shape/2","op":"Const","attr":{"value":{"tensor":{"dtype":"DT_INT32","tensorShape":{}}},"dtype":{"type":"DT_INT32"}}},
          {"name":"block2c_se_reshape_res1/Reshape/shape/3","op":"Const","attr":{"value":{"tensor":{"dtype":"DT_INT32","tensorShape":{}}},"dtype":{"type":"DT_INT32"}}},
          {"name":"block2c_se_reduce_res1/kernel","op":"Const","attr":{"value":{"tensor":{"dtype":"DT_FLOAT","tensorShape":{"dim":[{"size":"1"},{"size":"1"},{"size":"288"},{"size":"12"}]}}},"dtype":{"type":"DT_FLOAT"}}},
          {"name":"block2c_se_reduce_res1/bias","op":"Const","attr":{"value":{"tensor":{"dtype":"DT_FLOAT","tensorShape":{"dim":[{"size":"12"}]}}},"dtype":{"type":"DT_FLOAT"}}},
          {"name":"block2c_se_expand_res1/kernel","op":"Const","attr":{"value":{"tensor":{"dtype":"DT_FLOAT","tensorShape":{"dim":[{"size":"1"},{"size":"1"},{"size":"12"},{"size":"288"}]}}},"dtype":{"type":"DT_FLOAT"}}},
          {"name":"block2c_se_expand_res1/bias","op":"Const","attr":{"dtype":{"type":"DT_FLOAT"},"value":{"tensor":{"dtype":"DT_FLOAT","tensorShape":{"dim":[{"size":"288"}]}}}}},
          {"name":"block2b_se_squeeze_res1/Mean/reduction_indices","op":"Const","attr":{"dtype":{"type":"DT_INT32"},"value":{"tensor":{"dtype":"DT_INT32","tensorShape":{"dim":[{"size":"2"}]}}}}},
          {"name":"block2b_se_reshape_res1/strided_slice/stack","op":"Const","attr":{"dtype":{"type":"DT_INT32"},"value":{"tensor":{"dtype":"DT_INT32","tensorShape":{"dim":[{"size":"1"}]}}}}},
          {"name":"block2b_se_reshape_res1/strided_slice/stack_1","op":"Const","attr":{"dtype":{"type":"DT_INT32"},"value":{"tensor":{"dtype":"DT_INT32","tensorShape":{"dim":[{"size":"1"}]}}}}},
          {"name":"block2b_se_reshape_res1/strided_slice/stack_2","op":"Const","attr":{"value":{"tensor":{"dtype":"DT_INT32","tensorShape":{"dim":[{"size":"1"}]}}},"dtype":{"type":"DT_INT32"}}},
          {"name":"block2b_se_reshape_res1/Reshape/shape/1","op":"Const","attr":{"value":{"tensor":{"dtype":"DT_INT32","tensorShape":{}}},"dtype":{"type":"DT_INT32"}}},
          {"name":"block2b_se_reshape_res1/Reshape/shape/2","op":"Const","attr":{"value":{"tensor":{"dtype":"DT_INT32","tensorShape":{}}},"dtype":{"type":"DT_INT32"}}},
          {"name":"block2b_se_reshape_res1/Reshape/shape/3","op":"Const","attr":{"value":{"tensor":{"dtype":"DT_INT32","tensorShape":{}}},"dtype":{"type":"DT_INT32"}}},
          {"name":"block2b_se_reduce_res1/kernel","op":"Const","attr":{"value":{"tensor":{"dtype":"DT_FLOAT","tensorShape":{"dim":[{"size":"1"},{"size":"1"},{"size":"288"},{"size":"12"}]}}},"dtype":{"type":"DT_FLOAT"}}},
          {"name":"block2b_se_reduce_res1/bias","op":"Const","attr":{"dtype":{"type":"DT_FLOAT"},"value":{"tensor":{"dtype":"DT_FLOAT","tensorShape":{"dim":[{"size":"12"}]}}}}},
          {"name":"block2b_se_expand_res1/kernel","op":"Const","attr":{"value":{"tensor":{"dtype":"DT_FLOAT","tensorShape":{"dim":[{"size":"1"},{"size":"1"},{"size":"12"},{"size":"288"}]}}},"dtype":{"type":"DT_FLOAT"}}},
          {"name":"block2b_se_expand_res1/bias","op":"Const","attr":{"dtype":{"type":"DT_FLOAT"},"value":{"tensor":{"dtype":"DT_FLOAT","tensorShape":{"dim":[{"size":"288"}]}}}}},
          {"name":"block1d_se_squeeze_res1/Mean/reduction_indices","op":"Const","attr":{"value":{"tensor":{"dtype":"DT_INT32","tensorShape":{"dim":[{"size":"2"}]}}},"dtype":{"type":"DT_INT32"}}},
          {"name":"block1d_se_reshape_res1/strided_slice/stack","op":"Const","attr":{"value":{"tensor":{"dtype":"DT_INT32","tensorShape":{"dim":[{"size":"1"}]}}},"dtype":{"type":"DT_INT32"}}},
          {"name":"block1d_se_reshape_res1/strided_slice/stack_1","op":"Const","attr":{"dtype":{"type":"DT_INT32"},"value":{"tensor":{"dtype":"DT_INT32","tensorShape":{"dim":[{"size":"1"}]}}}}},
          {"name":"block1d_se_reshape_res1/strided_slice/stack_2","op":"Const","attr":{"dtype":{"type":"DT_INT32"},"value":{"tensor":{"dtype":"DT_INT32","tensorShape":{"dim":[{"size":"1"}]}}}}},
          {"name":"block1d_se_reshape_res1/Reshape/shape/1","op":"Const","attr":{"value":{"tensor":{"dtype":"DT_INT32","tensorShape":{}}},"dtype":{"type":"DT_INT32"}}},
          {"name":"block1d_se_reshape_res1/Reshape/shape/2","op":"Const","attr":{"value":{"tensor":{"dtype":"DT_INT32","tensorShape":{}}},"dtype":{"type":"DT_INT32"}}},
          {"name":"block1d_se_reshape_res1/Reshape/shape/3","op":"Const","attr":{"value":{"tensor":{"dtype":"DT_INT32","tensorShape":{}}},"dtype":{"type":"DT_INT32"}}},
          {"name":"block1d_se_reduce_res1/kernel","op":"Const","attr":{"value":{"tensor":{"dtype":"DT_FLOAT","tensorShape":{"dim":[{"size":"1"},{"size":"1"},{"size":"32"},{"size":"8"}]}}},"dtype":{"type":"DT_FLOAT"}}},
          {"name":"block1d_se_reduce_res1/bias","op":"Const","attr":{"dtype":{"type":"DT_FLOAT"},"value":{"tensor":{"dtype":"DT_FLOAT","tensorShape":{"dim":[{"size":"8"}]}}}}},
          {"name":"block1d_se_expand_res1/kernel","op":"Const","attr":{"value":{"tensor":{"dtype":"DT_FLOAT","tensorShape":{"dim":[{"size":"1"},{"size":"1"},{"size":"8"},{"size":"32"}]}}},"dtype":{"type":"DT_FLOAT"}}},
          {"name":"block1d_se_expand_res1/bias","op":"Const","attr":{"value":{"tensor":{"dtype":"DT_FLOAT","tensorShape":{"dim":[{"size":"32"}]}}},"dtype":{"type":"DT_FLOAT"}}},
          {"name":"block1c_se_squeeze_res1/Mean/reduction_indices","op":"Const","attr":{"value":{"tensor":{"dtype":"DT_INT32","tensorShape":{"dim":[{"size":"2"}]}}},"dtype":{"type":"DT_INT32"}}},
          {"name":"block1c_se_reshape_res1/strided_slice/stack","op":"Const","attr":{"dtype":{"type":"DT_INT32"},"value":{"tensor":{"dtype":"DT_INT32","tensorShape":{"dim":[{"size":"1"}]}}}}},
          {"name":"block1c_se_reshape_res1/strided_slice/stack_1","op":"Const","attr":{"value":{"tensor":{"dtype":"DT_INT32","tensorShape":{"dim":[{"size":"1"}]}}},"dtype":{"type":"DT_INT32"}}},
          {"name":"block1c_se_reshape_res1/strided_slice/stack_2","op":"Const","attr":{"value":{"tensor":{"dtype":"DT_INT32","tensorShape":{"dim":[{"size":"1"}]}}},"dtype":{"type":"DT_INT32"}}},
          {"name":"block1c_se_reshape_res1/Reshape/shape/1","op":"Const","attr":{"dtype":{"type":"DT_INT32"},"value":{"tensor":{"dtype":"DT_INT32","tensorShape":{}}}}},
          {"name":"block1c_se_reshape_res1/Reshape/shape/2","op":"Const","attr":{"dtype":{"type":"DT_INT32"},"value":{"tensor":{"dtype":"DT_INT32","tensorShape":{}}}}},
          {"name":"block1c_se_reshape_res1/Reshape/shape/3","op":"Const","attr":{"value":{"tensor":{"dtype":"DT_INT32","tensorShape":{}}},"dtype":{"type":"DT_INT32"}}},
          {"name":"block1c_se_reduce_res1/kernel","op":"Const","attr":{"dtype":{"type":"DT_FLOAT"},"value":{"tensor":{"dtype":"DT_FLOAT","tensorShape":{"dim":[{"size":"1"},{"size":"1"},{"size":"32"},{"size":"8"}]}}}}},
          {"name":"block1c_se_reduce_res1/bias","op":"Const","attr":{"dtype":{"type":"DT_FLOAT"},"value":{"tensor":{"dtype":"DT_FLOAT","tensorShape":{"dim":[{"size":"8"}]}}}}},
          {"name":"block1c_se_expand_res1/kernel","op":"Const","attr":{"value":{"tensor":{"dtype":"DT_FLOAT","tensorShape":{"dim":[{"size":"1"},{"size":"1"},{"size":"8"},{"size":"32"}]}}},"dtype":{"type":"DT_FLOAT"}}},
          {"name":"block1c_se_expand_res1/bias","op":"Const","attr":{"value":{"tensor":{"dtype":"DT_FLOAT","tensorShape":{"dim":[{"size":"32"}]}}},"dtype":{"type":"DT_FLOAT"}}},
          {"name":"block1b_se_squeeze_res1/Mean/reduction_indices","op":"Const","attr":{"dtype":{"type":"DT_INT32"},"value":{"tensor":{"dtype":"DT_INT32","tensorShape":{"dim":[{"size":"2"}]}}}}},
          {"name":"block1b_se_reshape_res1/strided_slice/stack","op":"Const","attr":{"value":{"tensor":{"dtype":"DT_INT32","tensorShape":{"dim":[{"size":"1"}]}}},"dtype":{"type":"DT_INT32"}}},
          {"name":"block1b_se_reshape_res1/strided_slice/stack_1","op":"Const","attr":{"value":{"tensor":{"dtype":"DT_INT32","tensorShape":{"dim":[{"size":"1"}]}}},"dtype":{"type":"DT_INT32"}}},
          {"name":"block1b_se_reshape_res1/strided_slice/stack_2","op":"Const","attr":{"value":{"tensor":{"dtype":"DT_INT32","tensorShape":{"dim":[{"size":"1"}]}}},"dtype":{"type":"DT_INT32"}}},
          {"name":"block1b_se_reshape_res1/Reshape/shape/1","op":"Const","attr":{"value":{"tensor":{"dtype":"DT_INT32","tensorShape":{}}},"dtype":{"type":"DT_INT32"}}},
          {"name":"block1b_se_reshape_res1/Reshape/shape/2","op":"Const","attr":{"dtype":{"type":"DT_INT32"},"value":{"tensor":{"dtype":"DT_INT32","tensorShape":{}}}}},
          {"name":"block1b_se_reshape_res1/Reshape/shape/3","op":"Const","attr":{"value":{"tensor":{"dtype":"DT_INT32","tensorShape":{}}},"dtype":{"type":"DT_INT32"}}},
          {"name":"block1b_se_reduce_res1/kernel","op":"Const","attr":{"dtype":{"type":"DT_FLOAT"},"value":{"tensor":{"dtype":"DT_FLOAT","tensorShape":{"dim":[{"size":"1"},{"size":"1"},{"size":"32"},{"size":"8"}]}}}}},
          {"name":"block1b_se_reduce_res1/bias","op":"Const","attr":{"value":{"tensor":{"dtype":"DT_FLOAT","tensorShape":{"dim":[{"size":"8"}]}}},"dtype":{"type":"DT_FLOAT"}}},
          {"name":"block1b_se_expand_res1/kernel","op":"Const","attr":{"dtype":{"type":"DT_FLOAT"},"value":{"tensor":{"dtype":"DT_FLOAT","tensorShape":{"dim":[{"size":"1"},{"size":"1"},{"size":"8"},{"size":"32"}]}}}}},
          {"name":"block1b_se_expand_res1/bias","op":"Const","attr":{"dtype":{"type":"DT_FLOAT"},"value":{"tensor":{"dtype":"DT_FLOAT","tensorShape":{"dim":[{"size":"32"}]}}}}},
          {"name":"block1a_se_squeeze_res1/Mean/reduction_indices","op":"Const","attr":{"value":{"tensor":{"dtype":"DT_INT32","tensorShape":{"dim":[{"size":"2"}]}}},"dtype":{"type":"DT_INT32"}}},
          {"name":"block1a_se_reshape_res1/strided_slice/stack","op":"Const","attr":{"dtype":{"type":"DT_INT32"},"value":{"tensor":{"dtype":"DT_INT32","tensorShape":{"dim":[{"size":"1"}]}}}}},
          {"name":"block1a_se_reshape_res1/strided_slice/stack_1","op":"Const","attr":{"dtype":{"type":"DT_INT32"},"value":{"tensor":{"dtype":"DT_INT32","tensorShape":{"dim":[{"size":"1"}]}}}}},
          {"name":"block1a_se_reshape_res1/strided_slice/stack_2","op":"Const","attr":{"value":{"tensor":{"dtype":"DT_INT32","tensorShape":{"dim":[{"size":"1"}]}}},"dtype":{"type":"DT_INT32"}}},
          {"name":"block1a_se_reshape_res1/Reshape/shape/1","op":"Const","attr":{"value":{"tensor":{"dtype":"DT_INT32","tensorShape":{}}},"dtype":{"type":"DT_INT32"}}},
          {"name":"block1a_se_reshape_res1/Reshape/shape/2","op":"Const","attr":{"dtype":{"type":"DT_INT32"},"value":{"tensor":{"dtype":"DT_INT32","tensorShape":{}}}}},
          {"name":"block1a_se_reshape_res1/Reshape/shape/3","op":"Const","attr":{"value":{"tensor":{"dtype":"DT_INT32","tensorShape":{}}},"dtype":{"type":"DT_INT32"}}},
          {"name":"block1a_se_reduce_res1/kernel","op":"Const","attr":{"value":{"tensor":{"dtype":"DT_FLOAT","tensorShape":{"dim":[{"size":"1"},{"size":"1"},{"size":"64"},{"size":"16"}]}}},"dtype":{"type":"DT_FLOAT"}}},
          {"name":"block1a_se_reduce_res1/bias","op":"Const","attr":{"value":{"tensor":{"dtype":"DT_FLOAT","tensorShape":{"dim":[{"size":"16"}]}}},"dtype":{"type":"DT_FLOAT"}}},
          {"name":"block1a_se_expand_res1/kernel","op":"Const","attr":{"value":{"tensor":{"dtype":"DT_FLOAT","tensorShape":{"dim":[{"size":"1"},{"size":"1"},{"size":"16"},{"size":"64"}]}}},"dtype":{"type":"DT_FLOAT"}}},
          {"name":"block1a_se_expand_res1/bias","op":"Const","attr":{"dtype":{"type":"DT_FLOAT"},"value":{"tensor":{"dtype":"DT_FLOAT","tensorShape":{"dim":[{"size":"64"}]}}}}},
          {"name":"block2a_se_squeeze_res1/Mean/reduction_indices","op":"Const","attr":{"value":{"tensor":{"dtype":"DT_INT32","tensorShape":{"dim":[{"size":"2"}]}}},"dtype":{"type":"DT_INT32"}}},
          {"name":"block2a_se_reshape_res1/strided_slice/stack","op":"Const","attr":{"dtype":{"type":"DT_INT32"},"value":{"tensor":{"dtype":"DT_INT32","tensorShape":{"dim":[{"size":"1"}]}}}}},
          {"name":"block2a_se_reshape_res1/strided_slice/stack_1","op":"Const","attr":{"value":{"tensor":{"dtype":"DT_INT32","tensorShape":{"dim":[{"size":"1"}]}}},"dtype":{"type":"DT_INT32"}}},
          {"name":"block2a_se_reshape_res1/strided_slice/stack_2","op":"Const","attr":{"value":{"tensor":{"dtype":"DT_INT32","tensorShape":{"dim":[{"size":"1"}]}}},"dtype":{"type":"DT_INT32"}}},
          {"name":"block2a_se_reshape_res1/Reshape/shape/1","op":"Const","attr":{"value":{"tensor":{"dtype":"DT_INT32","tensorShape":{}}},"dtype":{"type":"DT_INT32"}}},
          {"name":"block2a_se_reshape_res1/Reshape/shape/2","op":"Const","attr":{"dtype":{"type":"DT_INT32"},"value":{"tensor":{"dtype":"DT_INT32","tensorShape":{}}}}},
          {"name":"block2a_se_reshape_res1/Reshape/shape/3","op":"Const","attr":{"dtype":{"type":"DT_INT32"},"value":{"tensor":{"dtype":"DT_INT32","tensorShape":{}}}}},
          {"name":"block2a_se_reduce_res1/kernel","op":"Const","attr":{"dtype":{"type":"DT_FLOAT"},"value":{"tensor":{"dtype":"DT_FLOAT","tensorShape":{"dim":[{"size":"1"},{"size":"1"},{"size":"192"},{"size":"8"}]}}}}},
          {"name":"block2a_se_reduce_res1/bias","op":"Const","attr":{"dtype":{"type":"DT_FLOAT"},"value":{"tensor":{"dtype":"DT_FLOAT","tensorShape":{"dim":[{"size":"8"}]}}}}},
          {"name":"block2a_se_expand_res1/kernel","op":"Const","attr":{"dtype":{"type":"DT_FLOAT"},"value":{"tensor":{"dtype":"DT_FLOAT","tensorShape":{"dim":[{"size":"1"},{"size":"1"},{"size":"8"},{"size":"192"}]}}}}},
          {"name":"block2a_se_expand_res1/bias","op":"Const","attr":{"value":{"tensor":{"dtype":"DT_FLOAT","tensorShape":{"dim":[{"size":"192"}]}}},"dtype":{"type":"DT_FLOAT"}}},
          {"name":"block3a_se_squeeze_res1/Mean/reduction_indices","op":"Const","attr":{"dtype":{"type":"DT_INT32"},"value":{"tensor":{"dtype":"DT_INT32","tensorShape":{"dim":[{"size":"2"}]}}}}},
          {"name":"block3a_se_reshape_res1/strided_slice/stack","op":"Const","attr":{"dtype":{"type":"DT_INT32"},"value":{"tensor":{"dtype":"DT_INT32","tensorShape":{"dim":[{"size":"1"}]}}}}},
          {"name":"block3a_se_reshape_res1/strided_slice/stack_1","op":"Const","attr":{"value":{"tensor":{"dtype":"DT_INT32","tensorShape":{"dim":[{"size":"1"}]}}},"dtype":{"type":"DT_INT32"}}},
          {"name":"block3a_se_reshape_res1/strided_slice/stack_2","op":"Const","attr":{"dtype":{"type":"DT_INT32"},"value":{"tensor":{"dtype":"DT_INT32","tensorShape":{"dim":[{"size":"1"}]}}}}},
          {"name":"block3a_se_reshape_res1/Reshape/shape/1","op":"Const","attr":{"value":{"tensor":{"dtype":"DT_INT32","tensorShape":{}}},"dtype":{"type":"DT_INT32"}}},
          {"name":"block3a_se_reshape_res1/Reshape/shape/2","op":"Const","attr":{"value":{"tensor":{"dtype":"DT_INT32","tensorShape":{}}},"dtype":{"type":"DT_INT32"}}},
          {"name":"block3a_se_reshape_res1/Reshape/shape/3","op":"Const","attr":{"value":{"tensor":{"dtype":"DT_INT32","tensorShape":{}}},"dtype":{"type":"DT_INT32"}}},
          {"name":"block3a_se_reduce_res1/kernel","op":"Const","attr":{"value":{"tensor":{"dtype":"DT_FLOAT","tensorShape":{"dim":[{"size":"1"},{"size":"1"},{"size":"288"},{"size":"12"}]}}},"dtype":{"type":"DT_FLOAT"}}},
          {"name":"block3a_se_reduce_res1/bias","op":"Const","attr":{"dtype":{"type":"DT_FLOAT"},"value":{"tensor":{"dtype":"DT_FLOAT","tensorShape":{"dim":[{"size":"12"}]}}}}},
          {"name":"block3a_se_expand_res1/kernel","op":"Const","attr":{"dtype":{"type":"DT_FLOAT"},"value":{"tensor":{"dtype":"DT_FLOAT","tensorShape":{"dim":[{"size":"1"},{"size":"1"},{"size":"12"},{"size":"288"}]}}}}},
          {"name":"block3a_se_expand_res1/bias","op":"Const","attr":{"value":{"tensor":{"dtype":"DT_FLOAT","tensorShape":{"dim":[{"size":"288"}]}}},"dtype":{"type":"DT_FLOAT"}}},
          {"name":"block2b_se_squeeze_res2/Mean/reduction_indices","op":"Const","attr":{"dtype":{"type":"DT_INT32"},"value":{"tensor":{"dtype":"DT_INT32","tensorShape":{"dim":[{"size":"2"}]}}}}},
          {"name":"block2b_se_reshape_res2/strided_slice/stack","op":"Const","attr":{"dtype":{"type":"DT_INT32"},"value":{"tensor":{"dtype":"DT_INT32","tensorShape":{"dim":[{"size":"1"}]}}}}},
          {"name":"block2b_se_reshape_res2/strided_slice/stack_1","op":"Const","attr":{"value":{"tensor":{"dtype":"DT_INT32","tensorShape":{"dim":[{"size":"1"}]}}},"dtype":{"type":"DT_INT32"}}},
          {"name":"block2b_se_reshape_res2/strided_slice/stack_2","op":"Const","attr":{"dtype":{"type":"DT_INT32"},"value":{"tensor":{"dtype":"DT_INT32","tensorShape":{"dim":[{"size":"1"}]}}}}},
          {"name":"block2b_se_reshape_res2/Reshape/shape/1","op":"Const","attr":{"value":{"tensor":{"dtype":"DT_INT32","tensorShape":{}}},"dtype":{"type":"DT_INT32"}}},
          {"name":"block2b_se_reshape_res2/Reshape/shape/2","op":"Const","attr":{"value":{"tensor":{"dtype":"DT_INT32","tensorShape":{}}},"dtype":{"type":"DT_INT32"}}},
          {"name":"block2b_se_reshape_res2/Reshape/shape/3","op":"Const","attr":{"value":{"tensor":{"dtype":"DT_INT32","tensorShape":{}}},"dtype":{"type":"DT_INT32"}}},
          {"name":"block2b_se_reduce_res2/kernel","op":"Const","attr":{"dtype":{"type":"DT_FLOAT"},"value":{"tensor":{"dtype":"DT_FLOAT","tensorShape":{"dim":[{"size":"1"},{"size":"1"},{"size":"192"},{"size":"8"}]}}}}},
          {"name":"block2b_se_reduce_res2/bias","op":"Const","attr":{"value":{"tensor":{"dtype":"DT_FLOAT","tensorShape":{"dim":[{"size":"8"}]}}},"dtype":{"type":"DT_FLOAT"}}},
          {"name":"block2b_se_expand_res2/kernel","op":"Const","attr":{"value":{"tensor":{"dtype":"DT_FLOAT","tensorShape":{"dim":[{"size":"1"},{"size":"1"},{"size":"8"},{"size":"192"}]}}},"dtype":{"type":"DT_FLOAT"}}},
          {"name":"block2b_se_expand_res2/bias","op":"Const","attr":{"value":{"tensor":{"dtype":"DT_FLOAT","tensorShape":{"dim":[{"size":"192"}]}}},"dtype":{"type":"DT_FLOAT"}}},
          {"name":"block1b_se_squeeze_res2/Mean/reduction_indices","op":"Const","attr":{"dtype":{"type":"DT_INT32"},"value":{"tensor":{"dtype":"DT_INT32","tensorShape":{"dim":[{"size":"2"}]}}}}},
          {"name":"block1b_se_reshape_res2/strided_slice/stack","op":"Const","attr":{"value":{"tensor":{"dtype":"DT_INT32","tensorShape":{"dim":[{"size":"1"}]}}},"dtype":{"type":"DT_INT32"}}},
          {"name":"block1b_se_reshape_res2/strided_slice/stack_1","op":"Const","attr":{"value":{"tensor":{"dtype":"DT_INT32","tensorShape":{"dim":[{"size":"1"}]}}},"dtype":{"type":"DT_INT32"}}},
          {"name":"block1b_se_reshape_res2/strided_slice/stack_2","op":"Const","attr":{"value":{"tensor":{"dtype":"DT_INT32","tensorShape":{"dim":[{"size":"1"}]}}},"dtype":{"type":"DT_INT32"}}},
          {"name":"block1b_se_reshape_res2/Reshape/shape/1","op":"Const","attr":{"dtype":{"type":"DT_INT32"},"value":{"tensor":{"dtype":"DT_INT32","tensorShape":{}}}}},
          {"name":"block1b_se_reshape_res2/Reshape/shape/2","op":"Const","attr":{"dtype":{"type":"DT_INT32"},"value":{"tensor":{"dtype":"DT_INT32","tensorShape":{}}}}},
          {"name":"block1b_se_reshape_res2/Reshape/shape/3","op":"Const","attr":{"dtype":{"type":"DT_INT32"},"value":{"tensor":{"dtype":"DT_INT32","tensorShape":{}}}}},
          {"name":"block1b_se_reduce_res2/kernel","op":"Const","attr":{"value":{"tensor":{"dtype":"DT_FLOAT","tensorShape":{"dim":[{"size":"1"},{"size":"1"},{"size":"24"},{"size":"6"}]}}},"dtype":{"type":"DT_FLOAT"}}},
          {"name":"block1b_se_reduce_res2/bias","op":"Const","attr":{"dtype":{"type":"DT_FLOAT"},"value":{"tensor":{"dtype":"DT_FLOAT","tensorShape":{"dim":[{"size":"6"}]}}}}},
          {"name":"block1b_se_expand_res2/kernel","op":"Const","attr":{"value":{"tensor":{"dtype":"DT_FLOAT","tensorShape":{"dim":[{"size":"1"},{"size":"1"},{"size":"6"},{"size":"24"}]}}},"dtype":{"type":"DT_FLOAT"}}},
          {"name":"block1b_se_expand_res2/bias","op":"Const","attr":{"dtype":{"type":"DT_FLOAT"},"value":{"tensor":{"dtype":"DT_FLOAT","tensorShape":{"dim":[{"size":"24"}]}}}}},
          {"name":"input_res1","op":"Placeholder","attr":{"dtype":{"type":"DT_FLOAT"},"shape":{"shape":{"dim":[{"size":"1"},{"size":"600"},{"size":"600"},{"size":"3"}]}}}},
          {"name":"block1a_se_squeeze_res2/Mean/reduction_indices","op":"Const","attr":{"value":{"tensor":{"dtype":"DT_INT32","tensorShape":{"dim":[{"size":"2"}]}}},"dtype":{"type":"DT_INT32"}}},
          {"name":"block1a_se_reshape_res2/strided_slice/stack","op":"Const","attr":{"value":{"tensor":{"dtype":"DT_INT32","tensorShape":{"dim":[{"size":"1"}]}}},"dtype":{"type":"DT_INT32"}}},
          {"name":"block1a_se_reshape_res2/strided_slice/stack_1","op":"Const","attr":{"dtype":{"type":"DT_INT32"},"value":{"tensor":{"dtype":"DT_INT32","tensorShape":{"dim":[{"size":"1"}]}}}}},
          {"name":"block1a_se_reshape_res2/strided_slice/stack_2","op":"Const","attr":{"value":{"tensor":{"dtype":"DT_INT32","tensorShape":{"dim":[{"size":"1"}]}}},"dtype":{"type":"DT_INT32"}}},
          {"name":"block1a_se_reshape_res2/Reshape/shape/1","op":"Const","attr":{"dtype":{"type":"DT_INT32"},"value":{"tensor":{"dtype":"DT_INT32","tensorShape":{}}}}},
          {"name":"block1a_se_reshape_res2/Reshape/shape/2","op":"Const","attr":{"value":{"tensor":{"dtype":"DT_INT32","tensorShape":{}}},"dtype":{"type":"DT_INT32"}}},
          {"name":"block1a_se_reshape_res2/Reshape/shape/3","op":"Const","attr":{"value":{"tensor":{"dtype":"DT_INT32","tensorShape":{}}},"dtype":{"type":"DT_INT32"}}},
          {"name":"block1a_se_reduce_res2/kernel","op":"Const","attr":{"value":{"tensor":{"dtype":"DT_FLOAT","tensorShape":{"dim":[{"size":"1"},{"size":"1"},{"size":"40"},{"size":"10"}]}}},"dtype":{"type":"DT_FLOAT"}}},
          {"name":"block1a_se_reduce_res2/bias","op":"Const","attr":{"dtype":{"type":"DT_FLOAT"},"value":{"tensor":{"dtype":"DT_FLOAT","tensorShape":{"dim":[{"size":"10"}]}}}}},
          {"name":"block1a_se_expand_res2/kernel","op":"Const","attr":{"dtype":{"type":"DT_FLOAT"},"value":{"tensor":{"dtype":"DT_FLOAT","tensorShape":{"dim":[{"size":"1"},{"size":"1"},{"size":"10"},{"size":"40"}]}}}}},
          {"name":"block1a_se_expand_res2/bias","op":"Const","attr":{"value":{"tensor":{"dtype":"DT_FLOAT","tensorShape":{"dim":[{"size":"40"}]}}},"dtype":{"type":"DT_FLOAT"}}},
          {"name":"block2a_se_squeeze_res2/Mean/reduction_indices","op":"Const","attr":{"value":{"tensor":{"dtype":"DT_INT32","tensorShape":{"dim":[{"size":"2"}]}}},"dtype":{"type":"DT_INT32"}}},
          {"name":"block2a_se_reshape_res2/strided_slice/stack","op":"Const","attr":{"value":{"tensor":{"dtype":"DT_INT32","tensorShape":{"dim":[{"size":"1"}]}}},"dtype":{"type":"DT_INT32"}}},
          {"name":"block2a_se_reshape_res2/strided_slice/stack_1","op":"Const","attr":{"value":{"tensor":{"dtype":"DT_INT32","tensorShape":{"dim":[{"size":"1"}]}}},"dtype":{"type":"DT_INT32"}}},
          {"name":"block2a_se_reshape_res2/strided_slice/stack_2","op":"Const","attr":{"dtype":{"type":"DT_INT32"},"value":{"tensor":{"dtype":"DT_INT32","tensorShape":{"dim":[{"size":"1"}]}}}}},
          {"name":"block2a_se_reshape_res2/Reshape/shape/1","op":"Const","attr":{"value":{"tensor":{"dtype":"DT_INT32","tensorShape":{}}},"dtype":{"type":"DT_INT32"}}},
          {"name":"block2a_se_reshape_res2/Reshape/shape/2","op":"Const","attr":{"value":{"tensor":{"dtype":"DT_INT32","tensorShape":{}}},"dtype":{"type":"DT_INT32"}}},
          {"name":"block2a_se_reshape_res2/Reshape/shape/3","op":"Const","attr":{"value":{"tensor":{"dtype":"DT_INT32","tensorShape":{}}},"dtype":{"type":"DT_INT32"}}},
          {"name":"block2a_se_reduce_res2/kernel","op":"Const","attr":{"dtype":{"type":"DT_FLOAT"},"value":{"tensor":{"dtype":"DT_FLOAT","tensorShape":{"dim":[{"size":"1"},{"size":"1"},{"size":"144"},{"size":"6"}]}}}}},
          {"name":"block2a_se_reduce_res2/bias","op":"Const","attr":{"value":{"tensor":{"dtype":"DT_FLOAT","tensorShape":{"dim":[{"size":"6"}]}}},"dtype":{"type":"DT_FLOAT"}}},
          {"name":"block2a_se_expand_res2/kernel","op":"Const","attr":{"dtype":{"type":"DT_FLOAT"},"value":{"tensor":{"dtype":"DT_FLOAT","tensorShape":{"dim":[{"size":"1"},{"size":"1"},{"size":"6"},{"size":"144"}]}}}}},
          {"name":"block2a_se_expand_res2/bias","op":"Const","attr":{"dtype":{"type":"DT_FLOAT"},"value":{"tensor":{"dtype":"DT_FLOAT","tensorShape":{"dim":[{"size":"144"}]}}}}},
          {"name":"block2c_se_squeeze_res2/Mean/reduction_indices","op":"Const","attr":{"value":{"tensor":{"dtype":"DT_INT32","tensorShape":{"dim":[{"size":"2"}]}}},"dtype":{"type":"DT_INT32"}}},
          {"name":"block2c_se_reshape_res2/strided_slice/stack","op":"Const","attr":{"value":{"tensor":{"dtype":"DT_INT32","tensorShape":{"dim":[{"size":"1"}]}}},"dtype":{"type":"DT_INT32"}}},
          {"name":"block2c_se_reshape_res2/strided_slice/stack_1","op":"Const","attr":{"dtype":{"type":"DT_INT32"},"value":{"tensor":{"dtype":"DT_INT32","tensorShape":{"dim":[{"size":"1"}]}}}}},
          {"name":"block2c_se_reshape_res2/strided_slice/stack_2","op":"Const","attr":{"dtype":{"type":"DT_INT32"},"value":{"tensor":{"dtype":"DT_INT32","tensorShape":{"dim":[{"size":"1"}]}}}}},
          {"name":"block2c_se_reshape_res2/Reshape/shape/1","op":"Const","attr":{"dtype":{"type":"DT_INT32"},"value":{"tensor":{"dtype":"DT_INT32","tensorShape":{}}}}},
          {"name":"block2c_se_reshape_res2/Reshape/shape/2","op":"Const","attr":{"dtype":{"type":"DT_INT32"},"value":{"tensor":{"dtype":"DT_INT32","tensorShape":{}}}}},
          {"name":"block2c_se_reshape_res2/Reshape/shape/3","op":"Const","attr":{"dtype":{"type":"DT_INT32"},"value":{"tensor":{"dtype":"DT_INT32","tensorShape":{}}}}},
          {"name":"block2c_se_reduce_res2/kernel","op":"Const","attr":{"value":{"tensor":{"dtype":"DT_FLOAT","tensorShape":{"dim":[{"size":"1"},{"size":"1"},{"size":"192"},{"size":"8"}]}}},"dtype":{"type":"DT_FLOAT"}}},
          {"name":"block2c_se_reduce_res2/bias","op":"Const","attr":{"value":{"tensor":{"dtype":"DT_FLOAT","tensorShape":{"dim":[{"size":"8"}]}}},"dtype":{"type":"DT_FLOAT"}}},
          {"name":"block2c_se_expand_res2/kernel","op":"Const","attr":{"dtype":{"type":"DT_FLOAT"},"value":{"tensor":{"dtype":"DT_FLOAT","tensorShape":{"dim":[{"size":"1"},{"size":"1"},{"size":"8"},{"size":"192"}]}}}}},
          {"name":"block2c_se_expand_res2/bias","op":"Const","attr":{"value":{"tensor":{"dtype":"DT_FLOAT","tensorShape":{"dim":[{"size":"192"}]}}},"dtype":{"type":"DT_FLOAT"}}},
          {"name":"concatenate_3/concat/axis","op":"Const","attr":{"value":{"tensor":{"dtype":"DT_INT32","tensorShape":{}}},"dtype":{"type":"DT_INT32"}}},
          {"name":"pass3_block1_mbconv2_detection2_dense/concat/axis","op":"Const","attr":{"dtype":{"type":"DT_INT32"},"value":{"tensor":{"dtype":"DT_INT32","tensorShape":{}}}}},
          {"name":"pass3_block1_mbconv3_detection2_dense/concat/axis","op":"Const","attr":{"dtype":{"type":"DT_INT32"},"value":{"tensor":{"dtype":"DT_INT32","tensorShape":{}}}}},
          {"name":"pass3_detection2_confs/kernel","op":"Const","attr":{"value":{"tensor":{"dtype":"DT_FLOAT","tensorShape":{"dim":[{"size":"1"},{"size":"1"},{"size":"240"},{"size":"16"}]}}},"dtype":{"type":"DT_FLOAT"}}},
          {"name":"pass3_detection2_confs/bias","op":"Const","attr":{"dtype":{"type":"DT_FLOAT"},"value":{"tensor":{"dtype":"DT_FLOAT","tensorShape":{"dim":[{"size":"16"}]}}}}},
          {"name":"stem_conv_res1/convolution_weights","op":"Const","attr":{"dtype":{"type":"DT_FLOAT"},"value":{"tensor":{"dtype":"DT_FLOAT","tensorShape":{"dim":[{"size":"3"},{"size":"3"},{"size":"3"},{"size":"64"}]}}}}},
          {"name":"stem_conv_res1/convolution_bn_offset","op":"Const","attr":{"value":{"tensor":{"dtype":"DT_FLOAT","tensorShape":{"dim":[{"size":"64"}]}}},"dtype":{"type":"DT_FLOAT"}}},
          {"name":"stem_conv_res2/convolution_weights","op":"Const","attr":{"value":{"tensor":{"dtype":"DT_FLOAT","tensorShape":{"dim":[{"size":"3"},{"size":"3"},{"size":"3"},{"size":"40"}]}}},"dtype":{"type":"DT_FLOAT"}}},
          {"name":"stem_conv_res2/convolution_bn_offset","op":"Const","attr":{"value":{"tensor":{"dtype":"DT_FLOAT","tensorShape":{"dim":[{"size":"40"}]}}},"dtype":{"type":"DT_FLOAT"}}},
          {"name":"block1a_dwconv_res1/depthwise_weights","op":"Const","attr":{"dtype":{"type":"DT_FLOAT"},"value":{"tensor":{"dtype":"DT_FLOAT","tensorShape":{"dim":[{"size":"3"},{"size":"3"},{"size":"64"},{"size":"1"}]}}}}},
          {"name":"block1a_dwconv_res1/depthwise_bn_offset","op":"Const","attr":{"value":{"tensor":{"dtype":"DT_FLOAT","tensorShape":{"dim":[{"size":"64"}]}}},"dtype":{"type":"DT_FLOAT"}}},
          {"name":"pass3_block2_mbconv3_detection2_conv1/convolution_weights","op":"Const","attr":{"value":{"tensor":{"dtype":"DT_FLOAT","tensorShape":{"dim":[{"size":"1"},{"size":"1"},{"size":"160"},{"size":"480"}]}}},"dtype":{"type":"DT_FLOAT"}}},
          {"name":"block1a_dwconv_res2/depthwise_weights","op":"Const","attr":{"dtype":{"type":"DT_FLOAT"},"value":{"tensor":{"dtype":"DT_FLOAT","tensorShape":{"dim":[{"size":"3"},{"size":"3"},{"size":"40"},{"size":"1"}]}}}}},
          {"name":"block1a_dwconv_res2/depthwise_bn_offset","op":"Const","attr":{"dtype":{"type":"DT_FLOAT"},"value":{"tensor":{"dtype":"DT_FLOAT","tensorShape":{"dim":[{"size":"40"}]}}}}},
          {"name":"pass3_block2_mbconv3_detection2_conv1/convolution_bn_offset","op":"Const","attr":{"dtype":{"type":"DT_FLOAT"},"value":{"tensor":{"dtype":"DT_FLOAT","tensorShape":{"dim":[{"size":"480"}]}}}}},
          {"name":"block1a_project_conv_res1/convolution_weights","op":"Const","attr":{"dtype":{"type":"DT_FLOAT"},"value":{"tensor":{"dtype":"DT_FLOAT","tensorShape":{"dim":[{"size":"1"},{"size":"1"},{"size":"64"},{"size":"32"}]}}}}},
          {"name":"block1a_project_conv_res1/convolution_bn_offset","op":"Const","attr":{"dtype":{"type":"DT_FLOAT"},"value":{"tensor":{"dtype":"DT_FLOAT","tensorShape":{"dim":[{"size":"32"}]}}}}},
          {"name":"block1a_project_conv_res2/convolution_weights","op":"Const","attr":{"dtype":{"type":"DT_FLOAT"},"value":{"tensor":{"dtype":"DT_FLOAT","tensorShape":{"dim":[{"size":"1"},{"size":"1"},{"size":"40"},{"size":"24"}]}}}}},
          {"name":"block1a_project_conv_res2/convolution_bn_offset","op":"Const","attr":{"dtype":{"type":"DT_FLOAT"},"value":{"tensor":{"dtype":"DT_FLOAT","tensorShape":{"dim":[{"size":"24"}]}}}}},
          {"name":"block1b_dwconv_res1/depthwise_weights","op":"Const","attr":{"dtype":{"type":"DT_FLOAT"},"value":{"tensor":{"dtype":"DT_FLOAT","tensorShape":{"dim":[{"size":"3"},{"size":"3"},{"size":"32"},{"size":"1"}]}}}}},
          {"name":"block1b_dwconv_res1/depthwise_bn_offset","op":"Const","attr":{"dtype":{"type":"DT_FLOAT"},"value":{"tensor":{"dtype":"DT_FLOAT","tensorShape":{"dim":[{"size":"32"}]}}}}},
          {"name":"pass3_block2_mbconv3_detection2_dconv1/depthwise_weights","op":"Const","attr":{"value":{"tensor":{"dtype":"DT_FLOAT","tensorShape":{"dim":[{"size":"5"},{"size":"5"},{"size":"480"},{"size":"1"}]}}},"dtype":{"type":"DT_FLOAT"}}},
          {"name":"block1b_dwconv_res2/depthwise_weights","op":"Const","attr":{"dtype":{"type":"DT_FLOAT"},"value":{"tensor":{"dtype":"DT_FLOAT","tensorShape":{"dim":[{"size":"3"},{"size":"3"},{"size":"24"},{"size":"1"}]}}}}},
          {"name":"block1b_dwconv_res2/depthwise_bn_offset","op":"Const","attr":{"value":{"tensor":{"dtype":"DT_FLOAT","tensorShape":{"dim":[{"size":"24"}]}}},"dtype":{"type":"DT_FLOAT"}}},
          {"name":"pass3_block2_mbconv3_detection2_dconv1/depthwise_bn_offset","op":"Const","attr":{"dtype":{"type":"DT_FLOAT"},"value":{"tensor":{"dtype":"DT_FLOAT","tensorShape":{"dim":[{"size":"480"}]}}}}},
          {"name":"block1b_project_conv_res1/convolution_weights","op":"Const","attr":{"value":{"tensor":{"dtype":"DT_FLOAT","tensorShape":{"dim":[{"size":"1"},{"size":"1"},{"size":"32"},{"size":"32"}]}}},"dtype":{"type":"DT_FLOAT"}}},
          {"name":"block1b_project_conv_res1/convolution_bn_offset","op":"Const","attr":{"value":{"tensor":{"dtype":"DT_FLOAT","tensorShape":{"dim":[{"size":"32"}]}}},"dtype":{"type":"DT_FLOAT"}}},
          {"name":"block1b_project_conv_res2/convolution_weights","op":"Const","attr":{"value":{"tensor":{"dtype":"DT_FLOAT","tensorShape":{"dim":[{"size":"1"},{"size":"1"},{"size":"24"},{"size":"24"}]}}},"dtype":{"type":"DT_FLOAT"}}},
          {"name":"block1b_project_conv_res2/convolution_bn_offset","op":"Const","attr":{"value":{"tensor":{"dtype":"DT_FLOAT","tensorShape":{"dim":[{"size":"24"}]}}},"dtype":{"type":"DT_FLOAT"}}},
          {"name":"block1c_dwconv_res1/depthwise_weights","op":"Const","attr":{"value":{"tensor":{"dtype":"DT_FLOAT","tensorShape":{"dim":[{"size":"3"},{"size":"3"},{"size":"32"},{"size":"1"}]}}},"dtype":{"type":"DT_FLOAT"}}},
          {"name":"block1c_dwconv_res1/depthwise_bn_offset","op":"Const","attr":{"dtype":{"type":"DT_FLOAT"},"value":{"tensor":{"dtype":"DT_FLOAT","tensorShape":{"dim":[{"size":"32"}]}}}}},
          {"name":"block2a_expand_conv_res2/convolution_weights","op":"Const","attr":{"dtype":{"type":"DT_FLOAT"},"value":{"tensor":{"dtype":"DT_FLOAT","tensorShape":{"dim":[{"size":"1"},{"size":"1"},{"size":"24"},{"size":"144"}]}}}}},
          {"name":"block2a_expand_conv_res2/convolution_bn_offset","op":"Const","attr":{"dtype":{"type":"DT_FLOAT"},"value":{"tensor":{"dtype":"DT_FLOAT","tensorShape":{"dim":[{"size":"144"}]}}}}},
          {"name":"block2a_dwconv_res2/depthwise_weights","op":"Const","attr":{"value":{"tensor":{"dtype":"DT_FLOAT","tensorShape":{"dim":[{"size":"3"},{"size":"3"},{"size":"144"},{"size":"1"}]}}},"dtype":{"type":"DT_FLOAT"}}},
          {"name":"block2a_dwconv_res2/depthwise_bn_offset","op":"Const","attr":{"value":{"tensor":{"dtype":"DT_FLOAT","tensorShape":{"dim":[{"size":"144"}]}}},"dtype":{"type":"DT_FLOAT"}}},
          {"name":"block1c_project_conv_res1/convolution_weights","op":"Const","attr":{"value":{"tensor":{"dtype":"DT_FLOAT","tensorShape":{"dim":[{"size":"1"},{"size":"1"},{"size":"32"},{"size":"32"}]}}},"dtype":{"type":"DT_FLOAT"}}},
          {"name":"block1c_project_conv_res1/convolution_bn_offset","op":"Const","attr":{"dtype":{"type":"DT_FLOAT"},"value":{"tensor":{"dtype":"DT_FLOAT","tensorShape":{"dim":[{"size":"32"}]}}}}},
          {"name":"block1d_dwconv_res1/depthwise_weights","op":"Const","attr":{"value":{"tensor":{"dtype":"DT_FLOAT","tensorShape":{"dim":[{"size":"3"},{"size":"3"},{"size":"32"},{"size":"1"}]}}},"dtype":{"type":"DT_FLOAT"}}},
          {"name":"block1d_dwconv_res1/depthwise_bn_offset","op":"Const","attr":{"dtype":{"type":"DT_FLOAT"},"value":{"tensor":{"dtype":"DT_FLOAT","tensorShape":{"dim":[{"size":"32"}]}}}}},
          {"name":"block2a_project_conv_res2/convolution_weights","op":"Const","attr":{"dtype":{"type":"DT_FLOAT"},"value":{"tensor":{"dtype":"DT_FLOAT","tensorShape":{"dim":[{"size":"1"},{"size":"1"},{"size":"144"},{"size":"32"}]}}}}},
          {"name":"block2a_project_conv_res2/convolution_bn_offset","op":"Const","attr":{"value":{"tensor":{"dtype":"DT_FLOAT","tensorShape":{"dim":[{"size":"32"}]}}},"dtype":{"type":"DT_FLOAT"}}},
          {"name":"block2b_expand_conv_res2/convolution_weights","op":"Const","attr":{"value":{"tensor":{"dtype":"DT_FLOAT","tensorShape":{"dim":[{"size":"1"},{"size":"1"},{"size":"32"},{"size":"192"}]}}},"dtype":{"type":"DT_FLOAT"}}},
          {"name":"block2b_expand_conv_res2/convolution_bn_offset","op":"Const","attr":{"value":{"tensor":{"dtype":"DT_FLOAT","tensorShape":{"dim":[{"size":"192"}]}}},"dtype":{"type":"DT_FLOAT"}}},
          {"name":"block2b_dwconv_res2/depthwise_weights","op":"Const","attr":{"dtype":{"type":"DT_FLOAT"},"value":{"tensor":{"dtype":"DT_FLOAT","tensorShape":{"dim":[{"size":"3"},{"size":"3"},{"size":"192"},{"size":"1"}]}}}}},
          {"name":"block2b_dwconv_res2/depthwise_bn_offset","op":"Const","attr":{"value":{"tensor":{"dtype":"DT_FLOAT","tensorShape":{"dim":[{"size":"192"}]}}},"dtype":{"type":"DT_FLOAT"}}},
          {"name":"block1d_project_conv_res1/convolution_weights","op":"Const","attr":{"value":{"tensor":{"dtype":"DT_FLOAT","tensorShape":{"dim":[{"size":"1"},{"size":"1"},{"size":"32"},{"size":"32"}]}}},"dtype":{"type":"DT_FLOAT"}}},
          {"name":"pass3_block2_mbconv3_detection2_conv2/convolution_weights","op":"Const","attr":{"value":{"tensor":{"dtype":"DT_FLOAT","tensorShape":{"dim":[{"size":"1"},{"size":"1"},{"size":"480"},{"size":"80"}]}}},"dtype":{"type":"DT_FLOAT"}}},
          {"name":"block1d_project_conv_res1/convolution_bn_offset","op":"Const","attr":{"value":{"tensor":{"dtype":"DT_FLOAT","tensorShape":{"dim":[{"size":"32"}]}}},"dtype":{"type":"DT_FLOAT"}}},
          {"name":"block2a_expand_conv_res1/convolution_weights","op":"Const","attr":{"dtype":{"type":"DT_FLOAT"},"value":{"tensor":{"dtype":"DT_FLOAT","tensorShape":{"dim":[{"size":"1"},{"size":"1"},{"size":"32"},{"size":"192"}]}}}}},
          {"name":"block2a_expand_conv_res1/convolution_bn_offset","op":"Const","attr":{"dtype":{"type":"DT_FLOAT"},"value":{"tensor":{"dtype":"DT_FLOAT","tensorShape":{"dim":[{"size":"192"}]}}}}},
          {"name":"block2a_dwconv_res1/depthwise_weights","op":"Const","attr":{"value":{"tensor":{"dtype":"DT_FLOAT","tensorShape":{"dim":[{"size":"3"},{"size":"3"},{"size":"192"},{"size":"1"}]}}},"dtype":{"type":"DT_FLOAT"}}},
          {"name":"block2a_dwconv_res1/depthwise_bn_offset","op":"Const","attr":{"dtype":{"type":"DT_FLOAT"},"value":{"tensor":{"dtype":"DT_FLOAT","tensorShape":{"dim":[{"size":"192"}]}}}}},
          {"name":"pass3_block2_mbconv3_detection2_conv2/convolution_bn_offset","op":"Const","attr":{"dtype":{"type":"DT_FLOAT"},"value":{"tensor":{"dtype":"DT_FLOAT","tensorShape":{"dim":[{"size":"80"}]}}}}},
          {"name":"block2b_project_conv_res2/convolution_weights","op":"Const","attr":{"dtype":{"type":"DT_FLOAT"},"value":{"tensor":{"dtype":"DT_FLOAT","tensorShape":{"dim":[{"size":"1"},{"size":"1"},{"size":"192"},{"size":"32"}]}}}}},
          {"name":"block2b_project_conv_res2/convolution_bn_offset","op":"Const","attr":{"value":{"tensor":{"dtype":"DT_FLOAT","tensorShape":{"dim":[{"size":"32"}]}}},"dtype":{"type":"DT_FLOAT"}}},
          {"name":"block2c_expand_conv_res2/convolution_weights","op":"Const","attr":{"dtype":{"type":"DT_FLOAT"},"value":{"tensor":{"dtype":"DT_FLOAT","tensorShape":{"dim":[{"size":"1"},{"size":"1"},{"size":"32"},{"size":"192"}]}}}}},
          {"name":"block2c_expand_conv_res2/convolution_bn_offset","op":"Const","attr":{"dtype":{"type":"DT_FLOAT"},"value":{"tensor":{"dtype":"DT_FLOAT","tensorShape":{"dim":[{"size":"192"}]}}}}},
          {"name":"block2c_dwconv_res2/depthwise_weights","op":"Const","attr":{"dtype":{"type":"DT_FLOAT"},"value":{"tensor":{"dtype":"DT_FLOAT","tensorShape":{"dim":[{"size":"3"},{"size":"3"},{"size":"192"},{"size":"1"}]}}}}},
          {"name":"block2c_dwconv_res2/depthwise_bn_offset","op":"Const","attr":{"value":{"tensor":{"dtype":"DT_FLOAT","tensorShape":{"dim":[{"size":"192"}]}}},"dtype":{"type":"DT_FLOAT"}}},
          {"name":"pass3_block3_mbconv1_detection2_conv1/convolution_weights","op":"Const","attr":{"value":{"tensor":{"dtype":"DT_FLOAT","tensorShape":{"dim":[{"size":"1"},{"size":"1"},{"size":"240"},{"size":"480"}]}}},"dtype":{"type":"DT_FLOAT"}}},
          {"name":"block2a_project_conv_res1/convolution_weights","op":"Const","attr":{"dtype":{"type":"DT_FLOAT"},"value":{"tensor":{"dtype":"DT_FLOAT","tensorShape":{"dim":[{"size":"1"},{"size":"1"},{"size":"192"},{"size":"48"}]}}}}},
          {"name":"pass3_block3_mbconv1_detection2_conv1/convolution_bn_offset","op":"Const","attr":{"value":{"tensor":{"dtype":"DT_FLOAT","tensorShape":{"dim":[{"size":"480"}]}}},"dtype":{"type":"DT_FLOAT"}}},
          {"name":"block2a_project_conv_res1/convolution_bn_offset","op":"Const","attr":{"value":{"tensor":{"dtype":"DT_FLOAT","tensorShape":{"dim":[{"size":"48"}]}}},"dtype":{"type":"DT_FLOAT"}}},
          {"name":"block2b_expand_conv_res1/convolution_weights","op":"Const","attr":{"dtype":{"type":"DT_FLOAT"},"value":{"tensor":{"dtype":"DT_FLOAT","tensorShape":{"dim":[{"size":"1"},{"size":"1"},{"size":"48"},{"size":"288"}]}}}}},
          {"name":"block2b_expand_conv_res1/convolution_bn_offset","op":"Const","attr":{"dtype":{"type":"DT_FLOAT"},"value":{"tensor":{"dtype":"DT_FLOAT","tensorShape":{"dim":[{"size":"288"}]}}}}},
          {"name":"block2b_dwconv_res1/depthwise_weights","op":"Const","attr":{"dtype":{"type":"DT_FLOAT"},"value":{"tensor":{"dtype":"DT_FLOAT","tensorShape":{"dim":[{"size":"3"},{"size":"3"},{"size":"288"},{"size":"1"}]}}}}},
          {"name":"block2b_dwconv_res1/depthwise_bn_offset","op":"Const","attr":{"dtype":{"type":"DT_FLOAT"},"value":{"tensor":{"dtype":"DT_FLOAT","tensorShape":{"dim":[{"size":"288"}]}}}}},
          {"name":"block2c_project_conv_res2/convolution_weights","op":"Const","attr":{"dtype":{"type":"DT_FLOAT"},"value":{"tensor":{"dtype":"DT_FLOAT","tensorShape":{"dim":[{"size":"1"},{"size":"1"},{"size":"192"},{"size":"32"}]}}}}},
          {"name":"block2c_project_conv_res2/convolution_bn_offset","op":"Const","attr":{"value":{"tensor":{"dtype":"DT_FLOAT","tensorShape":{"dim":[{"size":"32"}]}}},"dtype":{"type":"DT_FLOAT"}}},
          {"name":"block2b_project_conv_res1/convolution_weights","op":"Const","attr":{"value":{"tensor":{"dtype":"DT_FLOAT","tensorShape":{"dim":[{"size":"1"},{"size":"1"},{"size":"288"},{"size":"48"}]}}},"dtype":{"type":"DT_FLOAT"}}},
          {"name":"pass3_block3_mbconv1_detection2_dconv1/depthwise_weights","op":"Const","attr":{"value":{"tensor":{"dtype":"DT_FLOAT","tensorShape":{"dim":[{"size":"5"},{"size":"5"},{"size":"480"},{"size":"1"}]}}},"dtype":{"type":"DT_FLOAT"}}},
          {"name":"block2b_project_conv_res1/convolution_bn_offset","op":"Const","attr":{"dtype":{"type":"DT_FLOAT"},"value":{"tensor":{"dtype":"DT_FLOAT","tensorShape":{"dim":[{"size":"48"}]}}}}},
          {"name":"block2c_expand_conv_res1/convolution_weights","op":"Const","attr":{"value":{"tensor":{"dtype":"DT_FLOAT","tensorShape":{"dim":[{"size":"1"},{"size":"1"},{"size":"48"},{"size":"288"}]}}},"dtype":{"type":"DT_FLOAT"}}},
          {"name":"block2c_expand_conv_res1/convolution_bn_offset","op":"Const","attr":{"dtype":{"type":"DT_FLOAT"},"value":{"tensor":{"dtype":"DT_FLOAT","tensorShape":{"dim":[{"size":"288"}]}}}}},
          {"name":"block2c_dwconv_res1/depthwise_weights","op":"Const","attr":{"dtype":{"type":"DT_FLOAT"},"value":{"tensor":{"dtype":"DT_FLOAT","tensorShape":{"dim":[{"size":"3"},{"size":"3"},{"size":"288"},{"size":"1"}]}}}}},
          {"name":"block2c_dwconv_res1/depthwise_bn_offset","op":"Const","attr":{"value":{"tensor":{"dtype":"DT_FLOAT","tensorShape":{"dim":[{"size":"288"}]}}},"dtype":{"type":"DT_FLOAT"}}},
          {"name":"pass3_block3_mbconv1_detection2_dconv1/depthwise_bn_offset","op":"Const","attr":{"dtype":{"type":"DT_FLOAT"},"value":{"tensor":{"dtype":"DT_FLOAT","tensorShape":{"dim":[{"size":"480"}]}}}}},
          {"name":"block2c_project_conv_res1/convolution_weights","op":"Const","attr":{"dtype":{"type":"DT_FLOAT"},"value":{"tensor":{"dtype":"DT_FLOAT","tensorShape":{"dim":[{"size":"1"},{"size":"1"},{"size":"288"},{"size":"48"}]}}}}},
          {"name":"block2c_project_conv_res1/convolution_bn_offset","op":"Const","attr":{"value":{"tensor":{"dtype":"DT_FLOAT","tensorShape":{"dim":[{"size":"48"}]}}},"dtype":{"type":"DT_FLOAT"}}},
          {"name":"block2d_expand_conv_res1/convolution_weights","op":"Const","attr":{"dtype":{"type":"DT_FLOAT"},"value":{"tensor":{"dtype":"DT_FLOAT","tensorShape":{"dim":[{"size":"1"},{"size":"1"},{"size":"48"},{"size":"288"}]}}}}},
          {"name":"block2d_expand_conv_res1/convolution_bn_offset","op":"Const","attr":{"value":{"tensor":{"dtype":"DT_FLOAT","tensorShape":{"dim":[{"size":"288"}]}}},"dtype":{"type":"DT_FLOAT"}}},
          {"name":"block2d_dwconv_res1/depthwise_weights","op":"Const","attr":{"dtype":{"type":"DT_FLOAT"},"value":{"tensor":{"dtype":"DT_FLOAT","tensorShape":{"dim":[{"size":"3"},{"size":"3"},{"size":"288"},{"size":"1"}]}}}}},
          {"name":"block2d_dwconv_res1/depthwise_bn_offset","op":"Const","attr":{"dtype":{"type":"DT_FLOAT"},"value":{"tensor":{"dtype":"DT_FLOAT","tensorShape":{"dim":[{"size":"288"}]}}}}},
          {"name":"block2d_project_conv_res1/convolution_weights","op":"Const","attr":{"value":{"tensor":{"dtype":"DT_FLOAT","tensorShape":{"dim":[{"size":"1"},{"size":"1"},{"size":"288"},{"size":"48"}]}}},"dtype":{"type":"DT_FLOAT"}}},
          {"name":"block2d_project_conv_res1/convolution_bn_offset","op":"Const","attr":{"value":{"tensor":{"dtype":"DT_FLOAT","tensorShape":{"dim":[{"size":"48"}]}}},"dtype":{"type":"DT_FLOAT"}}},
          {"name":"block2e_expand_conv_res1/convolution_weights","op":"Const","attr":{"dtype":{"type":"DT_FLOAT"},"value":{"tensor":{"dtype":"DT_FLOAT","tensorShape":{"dim":[{"size":"1"},{"size":"1"},{"size":"48"},{"size":"288"}]}}}}},
          {"name":"block2e_expand_conv_res1/convolution_bn_offset","op":"Const","attr":{"dtype":{"type":"DT_FLOAT"},"value":{"tensor":{"dtype":"DT_FLOAT","tensorShape":{"dim":[{"size":"288"}]}}}}},
          {"name":"block2e_dwconv_res1/depthwise_weights","op":"Const","attr":{"value":{"tensor":{"dtype":"DT_FLOAT","tensorShape":{"dim":[{"size":"3"},{"size":"3"},{"size":"288"},{"size":"1"}]}}},"dtype":{"type":"DT_FLOAT"}}},
          {"name":"block2e_dwconv_res1/depthwise_bn_offset","op":"Const","attr":{"value":{"tensor":{"dtype":"DT_FLOAT","tensorShape":{"dim":[{"size":"288"}]}}},"dtype":{"type":"DT_FLOAT"}}},
          {"name":"block2e_project_conv_res1/convolution_weights","op":"Const","attr":{"value":{"tensor":{"dtype":"DT_FLOAT","tensorShape":{"dim":[{"size":"1"},{"size":"1"},{"size":"288"},{"size":"48"}]}}},"dtype":{"type":"DT_FLOAT"}}},
          {"name":"block2e_project_conv_res1/convolution_bn_offset","op":"Const","attr":{"dtype":{"type":"DT_FLOAT"},"value":{"tensor":{"dtype":"DT_FLOAT","tensorShape":{"dim":[{"size":"48"}]}}}}},
          {"name":"block2f_expand_conv_res1/convolution_weights","op":"Const","attr":{"value":{"tensor":{"dtype":"DT_FLOAT","tensorShape":{"dim":[{"size":"1"},{"size":"1"},{"size":"48"},{"size":"288"}]}}},"dtype":{"type":"DT_FLOAT"}}},
          {"name":"block2f_expand_conv_res1/convolution_bn_offset","op":"Const","attr":{"dtype":{"type":"DT_FLOAT"},"value":{"tensor":{"dtype":"DT_FLOAT","tensorShape":{"dim":[{"size":"288"}]}}}}},
          {"name":"block2f_dwconv_res1/depthwise_weights","op":"Const","attr":{"value":{"tensor":{"dtype":"DT_FLOAT","tensorShape":{"dim":[{"size":"3"},{"size":"3"},{"size":"288"},{"size":"1"}]}}},"dtype":{"type":"DT_FLOAT"}}},
          {"name":"block2f_dwconv_res1/depthwise_bn_offset","op":"Const","attr":{"dtype":{"type":"DT_FLOAT"},"value":{"tensor":{"dtype":"DT_FLOAT","tensorShape":{"dim":[{"size":"288"}]}}}}},
          {"name":"block2f_project_conv_res1/convolution_weights","op":"Const","attr":{"dtype":{"type":"DT_FLOAT"},"value":{"tensor":{"dtype":"DT_FLOAT","tensorShape":{"dim":[{"size":"1"},{"size":"1"},{"size":"288"},{"size":"48"}]}}}}},
          {"name":"block2f_project_conv_res1/convolution_bn_offset","op":"Const","attr":{"value":{"tensor":{"dtype":"DT_FLOAT","tensorShape":{"dim":[{"size":"48"}]}}},"dtype":{"type":"DT_FLOAT"}}},
          {"name":"block2g_expand_conv_res1/convolution_weights","op":"Const","attr":{"value":{"tensor":{"dtype":"DT_FLOAT","tensorShape":{"dim":[{"size":"1"},{"size":"1"},{"size":"48"},{"size":"288"}]}}},"dtype":{"type":"DT_FLOAT"}}},
          {"name":"pass3_block3_mbconv1_detection2_conv2/convolution_weights","op":"Const","attr":{"value":{"tensor":{"dtype":"DT_FLOAT","tensorShape":{"dim":[{"size":"1"},{"size":"1"},{"size":"480"},{"size":"80"}]}}},"dtype":{"type":"DT_FLOAT"}}},
          {"name":"block2g_expand_conv_res1/convolution_bn_offset","op":"Const","attr":{"value":{"tensor":{"dtype":"DT_FLOAT","tensorShape":{"dim":[{"size":"288"}]}}},"dtype":{"type":"DT_FLOAT"}}},
          {"name":"block2g_dwconv_res1/depthwise_weights","op":"Const","attr":{"dtype":{"type":"DT_FLOAT"},"value":{"tensor":{"dtype":"DT_FLOAT","tensorShape":{"dim":[{"size":"3"},{"size":"3"},{"size":"288"},{"size":"1"}]}}}}},
          {"name":"block2g_dwconv_res1/depthwise_bn_offset","op":"Const","attr":{"dtype":{"type":"DT_FLOAT"},"value":{"tensor":{"dtype":"DT_FLOAT","tensorShape":{"dim":[{"size":"288"}]}}}}},
          {"name":"pass3_block3_mbconv1_detection2_conv2/convolution_bn_offset","op":"Const","attr":{"value":{"tensor":{"dtype":"DT_FLOAT","tensorShape":{"dim":[{"size":"80"}]}}},"dtype":{"type":"DT_FLOAT"}}},
          {"name":"block2g_project_conv_res1/convolution_weights","op":"Const","attr":{"dtype":{"type":"DT_FLOAT"},"value":{"tensor":{"dtype":"DT_FLOAT","tensorShape":{"dim":[{"size":"1"},{"size":"1"},{"size":"288"},{"size":"48"}]}}}}},
          {"name":"block2g_project_conv_res1/convolution_bn_offset","op":"Const","attr":{"value":{"tensor":{"dtype":"DT_FLOAT","tensorShape":{"dim":[{"size":"48"}]}}},"dtype":{"type":"DT_FLOAT"}}},
          {"name":"block3a_expand_conv_res1/convolution_weights","op":"Const","attr":{"value":{"tensor":{"dtype":"DT_FLOAT","tensorShape":{"dim":[{"size":"1"},{"size":"1"},{"size":"48"},{"size":"288"}]}}},"dtype":{"type":"DT_FLOAT"}}},
          {"name":"pass3_block3_mbconv2_detection2_conv1/convolution_weights","op":"Const","attr":{"dtype":{"type":"DT_FLOAT"},"value":{"tensor":{"dtype":"DT_FLOAT","tensorShape":{"dim":[{"size":"1"},{"size":"1"},{"size":"80"},{"size":"480"}]}}}}},
          {"name":"block3a_expand_conv_res1/convolution_bn_offset","op":"Const","attr":{"value":{"tensor":{"dtype":"DT_FLOAT","tensorShape":{"dim":[{"size":"288"}]}}},"dtype":{"type":"DT_FLOAT"}}},
          {"name":"block3a_dwconv_res1/depthwise_weights","op":"Const","attr":{"dtype":{"type":"DT_FLOAT"},"value":{"tensor":{"dtype":"DT_FLOAT","tensorShape":{"dim":[{"size":"5"},{"size":"5"},{"size":"288"},{"size":"1"}]}}}}},
          {"name":"block3a_dwconv_res1/depthwise_bn_offset","op":"Const","attr":{"dtype":{"type":"DT_FLOAT"},"value":{"tensor":{"dtype":"DT_FLOAT","tensorShape":{"dim":[{"size":"288"}]}}}}},
          {"name":"pass3_block3_mbconv2_detection2_conv1/convolution_bn_offset","op":"Const","attr":{"value":{"tensor":{"dtype":"DT_FLOAT","tensorShape":{"dim":[{"size":"480"}]}}},"dtype":{"type":"DT_FLOAT"}}},
          {"name":"block3a_project_conv_res1/convolution_weights","op":"Const","attr":{"dtype":{"type":"DT_FLOAT"},"value":{"tensor":{"dtype":"DT_FLOAT","tensorShape":{"dim":[{"size":"1"},{"size":"1"},{"size":"288"},{"size":"80"}]}}}}},
          {"name":"block3a_project_conv_res1/convolution_bn_offset","op":"Const","attr":{"value":{"tensor":{"dtype":"DT_FLOAT","tensorShape":{"dim":[{"size":"80"}]}}},"dtype":{"type":"DT_FLOAT"}}},
          {"name":"block3b_expand_conv_res1/convolution_weights","op":"Const","attr":{"value":{"tensor":{"dtype":"DT_FLOAT","tensorShape":{"dim":[{"size":"1"},{"size":"1"},{"size":"80"},{"size":"480"}]}}},"dtype":{"type":"DT_FLOAT"}}},
          {"name":"block3b_expand_conv_res1/convolution_bn_offset","op":"Const","attr":{"dtype":{"type":"DT_FLOAT"},"value":{"tensor":{"dtype":"DT_FLOAT","tensorShape":{"dim":[{"size":"480"}]}}}}},
          {"name":"block3b_dwconv_res1/depthwise_weights","op":"Const","attr":{"dtype":{"type":"DT_FLOAT"},"value":{"tensor":{"dtype":"DT_FLOAT","tensorShape":{"dim":[{"size":"5"},{"size":"5"},{"size":"480"},{"size":"1"}]}}}}},
          {"name":"block3b_dwconv_res1/depthwise_bn_offset","op":"Const","attr":{"value":{"tensor":{"dtype":"DT_FLOAT","tensorShape":{"dim":[{"size":"480"}]}}},"dtype":{"type":"DT_FLOAT"}}},
          {"name":"block3b_project_conv_res1/convolution_weights","op":"Const","attr":{"value":{"tensor":{"dtype":"DT_FLOAT","tensorShape":{"dim":[{"size":"1"},{"size":"1"},{"size":"480"},{"size":"80"}]}}},"dtype":{"type":"DT_FLOAT"}}},
          {"name":"pass3_block3_mbconv2_detection2_dconv1/depthwise_weights","op":"Const","attr":{"dtype":{"type":"DT_FLOAT"},"value":{"tensor":{"dtype":"DT_FLOAT","tensorShape":{"dim":[{"size":"5"},{"size":"5"},{"size":"480"},{"size":"1"}]}}}}},
          {"name":"block3b_project_conv_res1/convolution_bn_offset","op":"Const","attr":{"dtype":{"type":"DT_FLOAT"},"value":{"tensor":{"dtype":"DT_FLOAT","tensorShape":{"dim":[{"size":"80"}]}}}}},
          {"name":"block3c_expand_conv_res1/convolution_weights","op":"Const","attr":{"value":{"tensor":{"dtype":"DT_FLOAT","tensorShape":{"dim":[{"size":"1"},{"size":"1"},{"size":"80"},{"size":"480"}]}}},"dtype":{"type":"DT_FLOAT"}}},
          {"name":"block3c_expand_conv_res1/convolution_bn_offset","op":"Const","attr":{"dtype":{"type":"DT_FLOAT"},"value":{"tensor":{"dtype":"DT_FLOAT","tensorShape":{"dim":[{"size":"480"}]}}}}},
          {"name":"block3c_dwconv_res1/depthwise_weights","op":"Const","attr":{"dtype":{"type":"DT_FLOAT"},"value":{"tensor":{"dtype":"DT_FLOAT","tensorShape":{"dim":[{"size":"5"},{"size":"5"},{"size":"480"},{"size":"1"}]}}}}},
          {"name":"block3c_dwconv_res1/depthwise_bn_offset","op":"Const","attr":{"dtype":{"type":"DT_FLOAT"},"value":{"tensor":{"dtype":"DT_FLOAT","tensorShape":{"dim":[{"size":"480"}]}}}}},
          {"name":"pass3_block3_mbconv2_detection2_dconv1/depthwise_bn_offset","op":"Const","attr":{"dtype":{"type":"DT_FLOAT"},"value":{"tensor":{"dtype":"DT_FLOAT","tensorShape":{"dim":[{"size":"480"}]}}}}},
          {"name":"block3c_project_conv_res1/convolution_weights","op":"Const","attr":{"dtype":{"type":"DT_FLOAT"},"value":{"tensor":{"dtype":"DT_FLOAT","tensorShape":{"dim":[{"size":"1"},{"size":"1"},{"size":"480"},{"size":"80"}]}}}}},
          {"name":"block3c_project_conv_res1/convolution_bn_offset","op":"Const","attr":{"dtype":{"type":"DT_FLOAT"},"value":{"tensor":{"dtype":"DT_FLOAT","tensorShape":{"dim":[{"size":"80"}]}}}}},
          {"name":"block3d_expand_conv_res1/convolution_weights","op":"Const","attr":{"value":{"tensor":{"dtype":"DT_FLOAT","tensorShape":{"dim":[{"size":"1"},{"size":"1"},{"size":"80"},{"size":"480"}]}}},"dtype":{"type":"DT_FLOAT"}}},
          {"name":"block3d_expand_conv_res1/convolution_bn_offset","op":"Const","attr":{"dtype":{"type":"DT_FLOAT"},"value":{"tensor":{"dtype":"DT_FLOAT","tensorShape":{"dim":[{"size":"480"}]}}}}},
          {"name":"block3d_dwconv_res1/depthwise_weights","op":"Const","attr":{"dtype":{"type":"DT_FLOAT"},"value":{"tensor":{"dtype":"DT_FLOAT","tensorShape":{"dim":[{"size":"5"},{"size":"5"},{"size":"480"},{"size":"1"}]}}}}},
          {"name":"block3d_dwconv_res1/depthwise_bn_offset","op":"Const","attr":{"value":{"tensor":{"dtype":"DT_FLOAT","tensorShape":{"dim":[{"size":"480"}]}}},"dtype":{"type":"DT_FLOAT"}}},
          {"name":"block3d_project_conv_res1/convolution_weights","op":"Const","attr":{"value":{"tensor":{"dtype":"DT_FLOAT","tensorShape":{"dim":[{"size":"1"},{"size":"1"},{"size":"480"},{"size":"80"}]}}},"dtype":{"type":"DT_FLOAT"}}},
          {"name":"block3d_project_conv_res1/convolution_bn_offset","op":"Const","attr":{"value":{"tensor":{"dtype":"DT_FLOAT","tensorShape":{"dim":[{"size":"80"}]}}},"dtype":{"type":"DT_FLOAT"}}},
          {"name":"block3e_expand_conv_res1/convolution_weights","op":"Const","attr":{"value":{"tensor":{"dtype":"DT_FLOAT","tensorShape":{"dim":[{"size":"1"},{"size":"1"},{"size":"80"},{"size":"480"}]}}},"dtype":{"type":"DT_FLOAT"}}},
          {"name":"block3e_expand_conv_res1/convolution_bn_offset","op":"Const","attr":{"dtype":{"type":"DT_FLOAT"},"value":{"tensor":{"dtype":"DT_FLOAT","tensorShape":{"dim":[{"size":"480"}]}}}}},
          {"name":"block3e_dwconv_res1/depthwise_weights","op":"Const","attr":{"value":{"tensor":{"dtype":"DT_FLOAT","tensorShape":{"dim":[{"size":"5"},{"size":"5"},{"size":"480"},{"size":"1"}]}}},"dtype":{"type":"DT_FLOAT"}}},
          {"name":"block3e_dwconv_res1/depthwise_bn_offset","op":"Const","attr":{"value":{"tensor":{"dtype":"DT_FLOAT","tensorShape":{"dim":[{"size":"480"}]}}},"dtype":{"type":"DT_FLOAT"}}},
…
ame":"block3b_se_reshape_res1/strided_slice/stack_2","shape":[1],"dtype":"int32"},{"name":"block3b_se_reshape_res1/Reshape/shape/1","shape":[],"dtype":"int32"},{"name":"block3b_se_reshape_res1/Reshape/shape/2","shape":[],"dtype":"int32"},{"name":"block3b_se_reshape_res1/Reshape/shape/3","shape":[],"dtype":"int32"},{"name":"block3b_se_reduce_res1/kernel","shape":[1,1,480,20],"dtype":"float32"},{"name":"block3b_se_reduce_res1/bias","shape":[20],"dtype":"float32"},{"name":"block3b_se_expand_res1/kernel","shape":[1,1,20,480],"dtype":"float32"},{"name":"block3b_se_expand_res1/bias","shape":[480],"dtype":"float32"},{"name":"block2g_se_squeeze_res1/Mean/reduction_indices","shape":[2],"dtype":"int32"},{"name":"block2g_se_reshape_res1/strided_slice/stack","shape":[1],"dtype":"int32"},{"name":"block2g_se_reshape_res1/strided_slice/stack_1","shape":[1],"dtype":"int32"},{"name":"block2g_se_reshape_res1/strided_slice/stack_2","shape":[1],"dtype":"int32"},{"name":"block2g_se_reshape_res1/Reshape/shape/1","shape":[],"dtype":"int32"},{"name":"block2g_se_reshape_res1/Reshape/shape/2","shape":[],"dtype":"int32"},{"name":"block2g_se_reshape_res1/Reshape/shape/3","shape":[],"dtype":"int32"},{"name":"block2g_se_reduce_res1/kernel","shape":[1,1,288,12],"dtype":"float32"},{"name":"block2g_se_reduce_res1/bias","shape":[12],"dtype":"float32"},{"name":"block2g_se_expand_res1/kernel","shape":[1,1,12,288],"dtype":"float32"},{"name":"block2g_se_expand_res1/bias","shape":[288],"dtype":"float32"},{"name":"block2f_se_squeeze_res1/Mean/reduction_indices","shape":[2],"dtype":"int32"},{"name":"block2f_se_reshape_res1/strided_slice/stack","shape":[1],"dtype":"int32"},{"name":"block2f_se_reshape_res1/strided_slice/stack_1","shape":[1],"dtype":"int32"},{"name":"block2f_se_reshape_res1/strided_slice/stack_2","shape":[1],"dtype":"int32"},{"name":"block2f_se_reshape_res1/Reshape/shape/1","shape":[],"dtype":"int32"},{"name":"block2f_se_reshape_res1/Reshape/shape/2","shape":[],"dtype":"int32"},{"name":"block2f_se_reshape_res1/Reshape/shape/3","shape":[],"dtype":"int32"},{"name":"block2f_se_reduce_res1/kernel","shape":[1,1,288,12],"dtype":"float32"},{"name":"block2f_se_reduce_res1/bias","shape":[12],"dtype":"float32"},{"name":"block2f_se_expand_res1/kernel","shape":[1,1,12,288],"dtype":"float32"},{"name":"block2f_se_expand_res1/bias","shape":[288],"dtype":"float32"},{"name":"block2e_se_squeeze_res1/Mean/reduction_indices","shape":[2],"dtype":"int32"},{"name":"block2e_se_reshape_res1/strided_slice/stack","shape":[1],"dtype":"int32"},{"name":"block2e_se_reshape_res1/strided_slice/stack_1","shape":[1],"dtype":"int32"},{"name":"block2e_se_reshape_res1/strided_slice/stack_2","shape":[1],"dtype":"int32"},{"name":"block2e_se_reshape_res1/Reshape/shape/1","shape":[],"dtype":"int32"},{"name":"block2e_se_reshape_res1/Reshape/shape/2","shape":[],"dtype":"int32"},{"name":"block2e_se_reshape_res1/Reshape/shape/3","shape":[],"dtype":"int32"},{"name":"block2e_se_reduce_res1/kernel","shape":[1,1,288,12],"dtype":"float32"},{"name":"block2e_se_reduce_res1/bias","shape":[12],"dtype":"float32"},{"name":"block2e_se_expand_res1/kernel","shape":[1,1,12,288],"dtype":"float32"},{"name":"block2e_se_expand_res1/bias","shape":[288],"dtype":"float32"},{"name":"block2d_se_squeeze_res1/Mean/reduction_indices","shape":[2],"dtype":"int32"},{"name":"block2d_se_reshape_res1/strided_slice/stack","shape":[1],"dtype":"int32"},{"name":"block2d_se_reshape_res1/strided_slice/stack_1","shape":[1],"dtype":"int32"},{"name":"block2d_se_reshape_res1/strided_slice/stack_2","shape":[1],"dtype":"int32"},{"name":"block2d_se_reshape_res1/Reshape/shape/1","shape":[],"dtype":"int32"},{"name":"block2d_se_reshape_res1/Reshape/shape/2","shape":[],"dtype":"int32"},{"name":"block2d_se_reshape_res1/Reshape/shape/3","shape":[],"dtype":"int32"},{"name":"block2d_se_reduce_res1/kernel","shape":[1,1,288,12],"dtype":"float32"},{"name":"block2d_se_reduce_res1/bias","shape":[12],"dtype":"float32"},{"name":"block2d_se_expand_res1/kernel","shape":[1,1,12,288],"dtype":"float32"},{"name":"block2d_se_expand_res1/bias","shape":[288],"dtype":"float32"},{"name":"block2c_se_squeeze_res1/Mean/reduction_indices","shape":[2],"dtype":"int32"},{"name":"block2c_se_reshape_res1/strided_slice/stack","shape":[1],"dtype":"int32"},{"name":"block2c_se_reshape_res1/strided_slice/stack_1","shape":[1],"dtype":"int32"},{"name":"block2c_se_reshape_res1/strided_slice/stack_2","shape":[1],"dtype":"int32"},{"name":"block2c_se_reshape_res1/Reshape/shape/1","shape":[],"dtype":"int32"},{"name":"block2c_se_reshape_res1/Reshape/shape/2","shape":[],"dtype":"int32"},{"name":"block2c_se_reshape_res1/Reshape/shape/3","shape":[],"dtype":"int32"},{"name":"block2c_se_reduce_res1/kernel","shape":[1,1,288,12],"dtype":"float32"},{"name":"block2c_se_reduce_res1/bias","shape":[12],"dtype":"float32"},{"name":"block2c_se_expand_res1/kernel","shape":[1,1,12,288],"dtype":"float32"},{"name":"block2c_se_expand_res1/bias","shape":[288],"dtype":"float32"},{"name":"block2b_se_squeeze_res1/Mean/reduction_indices","shape":[2],"dtype":"int32"},{"name":"block2b_se_reshape_res1/strided_slice/stack","shape":[1],"dtype":"int32"},{"name":"block2b_se_reshape_res1/strided_slice/stack_1","shape":[1],"dtype":"int32"},{"name":"block2b_se_reshape_res1/strided_slice/stack_2","shape":[1],"dtype":"int32"},{"name":"block2b_se_reshape_res1/Reshape/shape/1","shape":[],"dtype":"int32"},{"name":"block2b_se_reshape_res1/Reshape/shape/2","shape":[],"dtype":"int32"},{"name":"block2b_se_reshape_res1/Reshape/shape/3","shape":[],"dtype":"int32"},{"name":"block2b_se_reduce_res1/kernel","shape":[1,1,288,12],"dtype":"float32"},{"name":"block2b_se_reduce_res1/bias","shape":[12],"dtype":"float32"},{"name":"block2b_se_expand_res1/kernel","shape":[1,1,12,288],"dtype":"float32"},{"name":"block2b_se_expand_res1/bias","shape":[288],"dtype":"float32"},{"name":"block1d_se_squeeze_res1/Mean/reduction_indices","shape":[2],"dtype":"int32"},{"name":"block1d_se_reshape_res1/strided_slice/stack","shape":[1],"dtype":"int32"},{"name":"block1d_se_reshape_res1/strided_slice/stack_1","shape":[1],"dtype":"int32"},{"name":"block1d_se_reshape_res1/strided_slice/stack_2","shape":[1],"dtype":"int32"},{"name":"block1d_se_reshape_res1/Reshape/shape/1","shape":[],"dtype":"int32"},{"name":"block1d_se_reshape_res1/Reshape/shape/2","shape":[],"dtype":"int32"},{"name":"block1d_se_reshape_res1/Reshape/shape/3","shape":[],"dtype":"int32"},{"name":"block1d_se_reduce_res1/kernel","shape":[1,1,32,8],"dtype":"float32"},{"name":"block1d_se_reduce_res1/bias","shape":[8],"dtype":"float32"},{"name":"block1d_se_expand_res1/kernel","shape":[1,1,8,32],"dtype":"float32"},{"name":"block1d_se_expand_res1/bias","shape":[32],"dtype":"float32"},{"name":"block1c_se_squeeze_res1/Mean/reduction_indices","shape":[2],"dtype":"int32"},{"name":"block1c_se_reshape_res1/strided_slice/stack","shape":[1],"dtype":"int32"},{"name":"block1c_se_reshape_res1/strided_slice/stack_1","shape":[1],"dtype":"int32"},{"name":"block1c_se_reshape_res1/strided_slice/stack_2","shape":[1],"dtype":"int32"},{"name":"block1c_se_reshape_res1/Reshape/shape/1","shape":[],"dtype":"int32"},{"name":"block1c_se_reshape_res1/Reshape/shape/2","shape":[],"dtype":"int32"},{"name":"block1c_se_reshape_res1/Reshape/shape/3","shape":[],"dtype":"int32"},{"name":"block1c_se_reduce_res1/kernel","shape":[1,1,32,8],"dtype":"float32"},{"name":"block1c_se_reduce_res1/bias","shape":[8],"dtype":"float32"},{"name":"block1c_se_expand_res1/kernel","shape":[1,1,8,32],"dtype":"float32"},{"name":"block1c_se_expand_res1/bias","shape":[32],"dtype":"float32"},{"name":"block1b_se_squeeze_res1/Mean/reduction_indices","shape":[2],"dtype":"int32"},{"name":"block1b_se_reshape_res1/strided_slice/stack","shape":[1],"dtype":"int32"},{"name":"block1b_se_reshape_res1/strided_slice/stack_1","shape":[1],"dtype":"int32"},{"name":"block1b_se_reshape_res1/strided_slice/stack_2","shape":[1],"dtype":"int32"},{"name":"block1b_se_reshape_res1/Reshape/shape/1","shape":[],"dtype":"int32"},{"name":"block1b_se_reshape_res1/Reshape/shape/2","shape":[],"dtype":"int32"},{"name":"block1b_se_reshape_res1/Reshape/shape/3","shape":[],"dtype":"int32"},{"name":"block1b_se_reduce_res1/kernel","shape":[1,1,32,8],"dtype":"float32"},{"name":"block1b_se_reduce_res1/bias","shape":[8],"dtype":"float32"},{"name":"block1b_se_expand_res1/kernel","shape":[1,1,8,32],"dtype":"float32"},{"name":"block1b_se_expand_res1/bias","shape":[32],"dtype":"float32"},{"name":"block1a_se_squeeze_res1/Mean/reduction_indices","shape":[2],"dtype":"int32"},{"name":"block1a_se_reshape_res1/strided_slice/stack","shape":[1],"dtype":"int32"},{"name":"block1a_se_reshape_res1/strided_slice/stack_1","shape":[1],"dtype":"int32"},{"name":"block1a_se_reshape_res1/strided_slice/stack_2","shape":[1],"dtype":"int32"},{"name":"block1a_se_reshape_res1/Reshape/shape/1","shape":[],"dtype":"int32"},{"name":"block1a_se_reshape_res1/Reshape/shape/2","shape":[],"dtype":"int32"},{"name":"block1a_se_reshape_res1/Reshape/shape/3","shape":[],"dtype":"int32"},{"name":"block1a_se_reduce_res1/kernel","shape":[1,1,64,16],"dtype":"float32"},{"name":"block1a_se_reduce_res1/bias","shape":[16],"dtype":"float32"},{"name":"block1a_se_expand_res1/kernel","shape":[1,1,16,64],"dtype":"float32"},{"name":"block1a_se_expand_res1/bias","shape":[64],"dtype":"float32"},{"name":"block2a_se_squeeze_res1/Mean/reduction_indices","shape":[2],"dtype":"int32"},{"name":"block2a_se_reshape_res1/strided_slice/stack","shape":[1],"dtype":"int32"},{"name":"block2a_se_reshape_res1/strided_slice/stack_1","shape":[1],"dtype":"int32"},{"name":"block2a_se_reshape_res1/strided_slice/stack_2","shape":[1],"dtype":"int32"},{"name":"block2a_se_reshape_res1/Reshape/shape/1","shape":[],"dtype":"int32"},{"name":"block2a_se_reshape_res1/Reshape/shape/2","shape":[],"dtype":"int32"},{"name":"block2a_se_reshape_res1/Reshape/shape/3","shape":[],"dtype":"int32"},{"name":"block2a_se_reduce_res1/kernel","shape":[1,1,192,8],"dtype":"float32"},{"name":"block2a_se_reduce_res1/bias","shape":[8],"dtype":"float32"},{"name":"block2a_se_expand_res1/kernel","shape":[1,1,8,192],"dtype":"float32"},{"name":"block2a_se_expand_res1/bias","shape":[192],"dtype":"float32"},{"name":"block3a_se_squeeze_res1/Mean/reduction_indices","shape":[2],"dtype":"int32"},{"name":"block3a_se_reshape_res1/strided_slice/stack","shape":[1],"dtype":"int32"},{"name":"block3a_se_reshape_res1/strided_slice/stack_1","shape":[1],"dtype":"int32"},{"name":"block3a_se_reshape_res1/strided_slice/stack_2","shape":[1],"dtype":"int32"},{"name":"block3a_se_reshape_res1/Reshape/shape/1","shape":[],"dtype":"int32"},{"name":"block3a_se_reshape_res1/Reshape/shape/2","shape":[],"dtype":"int32"},{"name":"block3a_se_reshape_res1/Reshape/shape/3","shape":[],"dtype":"int32"},{"name":"block3a_se_reduce_res1/kernel","shape":[1,1,288,12],"dtype":"float32"},{"name":"block3a_se_reduce_res1/bias","shape":[12],"dtype":"float32"},{"name":"block3a_se_expand_res1/kernel","shape":[1,1,12,288],"dtype":"float32"},{"name":"block3a_se_expand_res1/bias","shape":[288],"dtype":"float32"},{"name":"block2b_se_squeeze_res2/Mean/reduction_indices","shape":[2],"dtype":"int32"},{"name":"block2b_se_reshape_res2/strided_slice/stack","shape":[1],"dtype":"int32"},{"name":"block2b_se_reshape_res2/strided_slice/stack_1","shape":[1],"dtype":"int32"},{"name":"block2b_se_reshape_res2/strided_slice/stack_2","shape":[1],"dtype":"int32"},{"name":"block2b_se_reshape_res2/Reshape/shape/1","shape":[],"dtype":"int32"},{"name":"block2b_se_reshape_res2/Reshape/shape/2","shape":[],"dtype":"int32"},{"name":"block2b_se_reshape_res2/Reshape/shape/3","shape":[],"dtype":"int32"},{"name":"block2b_se_reduce_res2/kernel","shape":[1,1,192,8],"dtype":"float32"},{"name":"block2b_se_reduce_res2/bias","shape":[8],"dtype":"float32"},{"name":"block2b_se_expand_res2/kernel","shape":[1,1,8,192],"dtype":"float32"},{"name":"block2b_se_expand_res2/bias","shape":[192],"dtype":"float32"},{"name":"block1b_se_squeeze_res2/Mean/reduction_indices","shape":[2],"dtype":"int32"},{"name":"block1b_se_reshape_res2/strided_slice/stack","shape":[1],"dtype":"int32"},{"name":"block1b_se_reshape_res2/strided_slice/stack_1","shape":[1],"dtype":"int32"},{"name":"block1b_se_reshape_res2/strided_slice/stack_2","shape":[1],"dtype":"int32"},{"name":"block1b_se_reshape_res2/Reshape/shape/1","shape":[],"dtype":"int32"},{"name":"block1b_se_reshape_res2/Reshape/shape/2","shape":[],"dtype":"int32"},{"name":"block1b_se_reshape_res2/Reshape/shape/3","shape":[],"dtype":"int32"},{"name":"block1b_se_reduce_res2/kernel","shape":[1,1,24,6],"dtype":"float32"},{"name":"block1b_se_reduce_res2/bias","shape":[6],"dtype":"float32"},{"name":"block1b_se_expand_res2/kernel","shape":[1,1,6,24],"dtype":"float32"},{"name":"block1b_se_expand_res2/bias","shape":[24],"dtype":"float32"},{"name":"block1a_se_squeeze_res2/Mean/reduction_indices","shape":[2],"dtype":"int32"},{"name":"block1a_se_reshape_res2/strided_slice/stack","shape":[1],"dtype":"int32"},{"name":"block1a_se_reshape_res2/strided_slice/stack_1","shape":[1],"dtype":"int32"},{"name":"block1a_se_reshape_res2/strided_slice/stack_2","shape":[1],"dtype":"int32"},{"name":"block1a_se_reshape_res2/Reshape/shape/1","shape":[],"dtype":"int32"},{"name":"block1a_se_reshape_res2/Reshape/shape/2","shape":[],"dtype":"int32"},{"name":"block1a_se_reshape_res2/Reshape/shape/3","shape":[],"dtype":"int32"},{"name":"block1a_se_reduce_res2/kernel","shape":[1,1,40,10],"dtype":"float32"},{"name":"block1a_se_reduce_res2/bias","shape":[10],"dtype":"float32"},{"name":"block1a_se_expand_res2/kernel","shape":[1,1,10,40],"dtype":"float32"},{"name":"block1a_se_expand_res2/bias","shape":[40],"dtype":"float32"},{"name":"block2a_se_squeeze_res2/Mean/reduction_indices","shape":[2],"dtype":"int32"},{"name":"block2a_se_reshape_res2/strided_slice/stack","shape":[1],"dtype":"int32"},{"name":"block2a_se_reshape_res2/strided_slice/stack_1","shape":[1],"dtype":"int32"},{"name":"block2a_se_reshape_res2/strided_slice/stack_2","shape":[1],"dtype":"int32"},{"name":"block2a_se_reshape_res2/Reshape/shape/1","shape":[],"dtype":"int32"},{"name":"block2a_se_reshape_res2/Reshape/shape/2","shape":[],"dtype":"int32"},{"name":"block2a_se_reshape_res2/Reshape/shape/3","shape":[],"dtype":"int32"},{"name":"block2a_se_reduce_res2/kernel","shape":[1,1,144,6],"dtype":"float32"},{"name":"block2a_se_reduce_res2/bias","shape":[6],"dtype":"float32"},{"name":"block2a_se_expand_res2/kernel","shape":[1,1,6,144],"dtype":"float32"},{"name":"block2a_se_expand_res2/bias","shape":[144],"dtype":"float32"},{"name":"block2c_se_squeeze_res2/Mean/reduction_indices","shape":[2],"dtype":"int32"},{"name":"block2c_se_reshape_res2/strided_slice/stack","shape":[1],"dtype":"int32"},{"name":"block2c_se_reshape_res2/strided_slice/stack_1","shape":[1],"dtype":"int32"},{"name":"block2c_se_reshape_res2/strided_slice/stack_2","shape":[1],"dtype":"int32"},{"name":"block2c_se_reshape_res2/Reshape/shape/1","shape":[],"dtype":"int32"},{"name":"block2c_se_reshape_res2/Reshape/shape/2","shape":[],"dtype":"int32"},{"name":"block2c_se_reshape_res2/Reshape/shape/3","shape":[],"dtype":"int32"},{"name":"block2c_se_reduce_res2/kernel","shape":[1,1,192,8],"dtype":"float32"},{"name":"block2c_se_reduce_res2/bias","shape":[8],"dtype":"float32"},{"name":"block2c_se_expand_res2/kernel","shape":[1,1,8,192],"dtype":"float32"},{"name":"block2c_se_expand_res2/bias","shape":[192],"dtype":"float32"},{"name":"concatenate_3/concat/axis","shape":[],"dtype":"int32"},{"name":"pass3_block1_mbconv2_detection2_dense/concat/axis","shape":[],"dtype":"int32"},{"name":"pass3_block1_mbconv3_detection2_dense/concat/axis","shape":[],"dtype":"int32"},{"name":"pass3_detection2_confs/kernel","shape":[1,1,240,16],"dtype":"float32"},{"name":"pass3_detection2_confs/bias","shape":[16],"dtype":"float32"},{"name":"stem_conv_res1/convolution_weights","shape":[3,3,3,64],"dtype":"float32"},{"name":"stem_conv_res1/convolution_bn_offset","shape":[64],"dtype":"float32"},{"name":"stem_conv_res2/convolution_weights","shape":[3,3,3,40],"dtype":"float32"},{"name":"stem_conv_res2/convolution_bn_offset","shape":[40],"dtype":"float32"},{"name":"block1a_dwconv_res1/depthwise_weights","shape":[3,3,64,1],"dtype":"float32"},{"name":"block1a_dwconv_res1/depthwise_bn_offset","shape":[64],"dtype":"float32"},{"name":"pass3_block2_mbconv3_detection2_conv1/convolution_weights","shape":[1,1,160,480],"dtype":"float32"},{"name":"block1a_dwconv_res2/depthwise_weights","shape":[3,3,40,1],"dtype":"float32"},{"name":"block1a_dwconv_res2/depthwise_bn_offset","shape":[40],"dtype":"float32"},{"name":"pass3_block2_mbconv3_detection2_conv1/convolution_bn_offset","shape":[480],"dtype":"float32"},{"name":"block1a_project_conv_res1/convolution_weights","shape":[1,1,64,32],"dtype":"float32"},{"name":"block1a_project_conv_res1/convolution_bn_offset","shape":[32],"dtype":"float32"},{"name":"block1a_project_conv_res2/convolution_weights","shape":[1,1,40,24],"dtype":"float32"},{"name":"block1a_project_conv_res2/convolution_bn_offset","shape":[24],"dtype":"float32"},{"name":"block1b_dwconv_res1/depthwise_weights","shape":[3,3,32,1],"dtype":"float32"},{"name":"block1b_dwconv_res1/depthwise_bn_offset","shape":[32],"dtype":"float32"},{"name":"pass3_block2_mbconv3_detection2_dconv1/depthwise_weights","shape":[5,5,480,1],"dtype":"float32"},{"name":"block1b_dwconv_res2/depthwise_weights","shape":[3,3,24,1],"dtype":"float32"},{"name":"block1b_dwconv_res2/depthwise_bn_offset","shape":[24],"dtype":"float32"},{"name":"pass3_block2_mbconv3_detection2_dconv1/depthwise_bn_offset","shape":[480],"dtype":"float32"},{"name":"block1b_project_conv_res1/convolution_weights","shape":[1,1,32,32],"dtype":"float32"},{"name":"block1b_project_conv_res1/convolution_bn_offset","shape":[32],"dtype":"float32"},{"name":"block1b_project_conv_res2/convolution_weights","shape":[1,1,24,24],"dtype":"float32"},{"name":"block1b_project_conv_res2/convolution_bn_offset","shape":[24],"dtype":"float32"},{"name":"block1c_dwconv_res1/depthwise_weights","shape":[3,3,32,1],"dtype":"float32"},{"name":"block1c_dwconv_res1/depthwise_bn_offset","shape":[32],"dtype":"float32"},{"name":"block2a_expand_conv_res2/convolution_weights","shape":[1,1,24,144],"dtype":"float32"},{"name":"block2a_expand_conv_res2/convolution_bn_offset","shape":[144],"dtype":"float32"},{"name":"block2a_dwconv_res2/depthwise_weights","shape":[3,3,144,1],"dtype":"float32"},{"name":"block2a_dwconv_res2/depthwise_bn_offset","shape":[144],"dtype":"float32"},{"name":"block1c_project_conv_res1/convolution_weights","shape":[1,1,32,32],"dtype":"float32"},{"name":"block1c_project_conv_res1/convolution_bn_offset","shape":[32],"dtype":"float32"},{"name":"block1d_dwconv_res1/depthwise_weights","shape":[3,3,32,1],"dtype":"float32"},{"name":"block1d_dwconv_res1/depthwise_bn_offset","shape":[32],"dtype":"float32"},{"name":"block2a_project_conv_res2/convolution_weights","shape":[1,1,144,32],"dtype":"float32"},{"name":"block2a_project_conv_res2/convolution_bn_offset","shape":[32],"dtype":"float32"},{"name":"block2b_expand_conv_res2/convolution_weights","shape":[1,1,32,192],"dtype":"float32"},{"name":"block2b_expand_conv_res2/convolution_bn_offset","shape":[192],"dtype":"float32"},{"name":"block2b_dwconv_res2/depthwise_weights","shape":[3,3,192,1],"dtype":"float32"},{"name":"block2b_dwconv_res2/depthwise_bn_offset","shape":[192],"dtype":"float32"},{"name":"block1d_project_conv_res1/convolution_weights","shape":[1,1,32,32],"dtype":"float32"},{"name":"pass3_block2_mbconv3_detection2_conv2/convolution_weights","shape":[1,1,480,80],"dtype":"float32"},{"name":"block1d_project_conv_res1/convolution_bn_offset","shape":[32],"dtype":"float32"},{"name":"block2a_expand_conv_res1/convolution_weights","shape":[1,1,32,192],"dtype":"float32"},{"name":"block2a_expand_conv_res1/convolution_bn_offset","shape":[192],"dtype":"float32"},{"name":"block2a_dwconv_res1/depthwise_weights","shape":[3,3,192,1],"dtype":"float32"},{"name":"block2a_dwconv_res1/depthwise_bn_offset","shape":[192],"dtype":"float32"},{"name":"pass3_block2_mbconv3_detection2_conv2/convolution_bn_offset","shape":[80],"dtype":"float32"},{"name":"block2b_project_conv_res2/convolution_weights","shape":[1,1,192,32],"dtype":"float32"},{"name":"block2b_project_conv_res2/convolution_bn_offset","shape":[32],"dtype":"float32"},{"name":"block2c_expand_conv_res2/convolution_weights","shape":[1,1,32,192],"dtype":"float32"},{"name":"block2c_expand_conv_res2/convolution_bn_offset","shape":[192],"dtype":"float32"},{"name":"block2c_dwconv_res2/depthwise_weights","shape":[3,3,192,1],"dtype":"float32"},{"name":"block2c_dwconv_res2/depthwise_bn_offset","shape":[192],"dtype":"float32"},{"name":"pass3_block3_mbconv1_detection2_conv1/convolution_weights","shape":[1,1,240,480],"dtype":"float32"},{"name":"block2a_project_conv_res1/convolution_weights","shape":[1,1,192,48],"dtype":"float32"},{"name":"pass3_block3_mbconv1_detection2_conv1/convolution_bn_offset","shape":[480],"dtype":"float32"},{"name":"block2a_project_conv_res1/convolution_bn_offset","shape":[48],"dtype":"float32"},{"name":"block2b_expand_conv_res1/convolution_weights","shape":[1,1,48,288],"dtype":"float32"},{"name":"block2b_expand_conv_res1/convolution_bn_offset","shape":[288],"dtype":"float32"},{"name":"block2b_dwconv_res1/depthwise_weights","shape":[3,3,288,1],"dtype":"float32"},{"name":"block2b_dwconv_res1/depthwise_bn_offset","shape":[288],"dtype":"float32"},{"name":"block2c_project_conv_res2/convolution_weights","shape":[1,1,192,32],"dtype":"float32"},{"name":"block2c_project_conv_res2/convolution_bn_offset","shape":[32],"dtype":"float32"},{"name":"block2b_project_conv_res1/convolution_weights","shape":[1,1,288,48],"dtype":"float32"},{"name":"pass3_block3_mbconv1_detection2_dconv1/depthwise_weights","shape":[5,5,480,1],"dtype":"float32"},{"name":"block2b_project_conv_res1/convolution_bn_offset","shape":[48],"dtype":"float32"},{"name":"block2c_expand_conv_res1/convolution_weights","shape":[1,1,48,288],"dtype":"float32"},{"name":"block2c_expand_conv_res1/convolution_bn_offset","shape":[288],"dtype":"float32"},{"name":"block2c_dwconv_res1/depthwise_weights","shape":[3,3,288,1],"dtype":"float32"},{"name":"block2c_dwconv_res1/depthwise_bn_offset","shape":[288],"dtype":"float32"},{"name":"pass3_block3_mbconv1_detection2_dconv1/depthwise_bn_offset","shape":[480],"dtype":"float32"},{"name":"block2c_project_conv_res1/convolution_weights","shape":[1,1,288,48],"dtype":"float32"},{"name":"block2c_project_conv_res1/convolution_bn_offset","shape":[48],"dtype":"float32"},{"name":"block2d_expand_conv_res1/convolution_weights","shape":[1,1,48,288],"dtype":"float32"},{"name":"block2d_expand_conv_res1/convolution_bn_offset","shape":[288],"dtype":"float32"},{"name":"block2d_dwconv_res1/depthwise_weights","shape":[3,3,288,1],"dtype":"float32"},{"name":"block2d_dwconv_res1/depthwise_bn_offset","shape":[288],"dtype":"float32"},{"name":"block2d_project_conv_res1/convolution_weights","shape":[1,1,288,48],"dtype":"float32"},{"name":"block2d_project_conv_res1/convolution_bn_offset","shape":[48],"dtype":"float32"},{"name":"block2e_expand_conv_res1/convolution_weights","shape":[1,1,48,288],"dtype":"float32"},{"name":"block2e_expand_conv_res1/convolution_bn_offset","shape":[288],"dtype":"float32"},{"name":"block2e_dwconv_res1/depthwise_weights","shape":[3,3,288,1],"dtype":"float32"},{"name":"block2e_dwconv_res1/depthwise_bn_offset","shape":[288],"dtype":"float32"},{"name":"block2e_project_conv_res1/convolution_weights","shape":[1,1,288,48],"dtype":"float32"},{"name":"block2e_project_conv_res1/convolution_bn_offset","shape":[48],"dtype":"float32"},{"name":"block2f_expand_conv_res1/convolution_weights","shape":[1,1,48,288],"dtype":"float32"},{"name":"block2f_expand_conv_res1/convolution_bn_offset","shape":[288],"dtype":"float32"},{"name":"block2f_dwconv_res1/depthwise_weights","shape":[3,3,288,1],"dtype":"float32"},{"name":"block2f_dwconv_res1/depthwise_bn_offset","shape":[288],"dtype":"float32"},{"name":"block2f_project_conv_res1/convolution_weights","shape":[1,1,288,48],"dtype":"float32"},{"name":"block2f_project_conv_res1/convolution_bn_offset","shape":[48],"dtype":"float32"},{"name":"block2g_expand_conv_res1/convolution_weights","shape":[1,1,48,288],"dtype":"float32"},{"name":"pass3_block3_mbconv1_detection2_conv2/convolution_weights","shape":[1,1,480,80],"dtype":"float32"},{"name":"block2g_expand_conv_res1/convolution_bn_offset","shape":[288],"dtype":"float32"},{"name":"block2g_dwconv_res1/depthwise_weights","shape":[3,3,288,1],"dtype":"float32"},{"name":"block2g_dwconv_res1/depthwise_bn_offset","shape":[288],"dtype":"float32"},{"name":"pass3_block3_mbconv1_detection2_conv2/convolution_bn_offset","shape":[80],"dtype":"float32"},{"name":"block2g_project_conv_res1/convolution_weights","shape":[1,1,288,48],"dtype":"float32"},{"name":"block2g_project_conv_res1/convolution_bn_offset","shape":[48],"dtype":"float32"},{"name":"block3a_expand_conv_res1/convolution_weights","shape":[1,1,48,288],"dtype":"float32"},{"name":"pass3_block3_mbconv2_detection2_conv1/convolution_weights","shape":[1,1,80,480],"dtype":"float32"},{"name":"block3a_expand_conv_res1/convolution_bn_offset","shape":[288],"dtype":"float32"},{"name":"block3a_dwconv_res1/depthwise_weights","shape":[5,5,288,1],"dtype":"float32"},{"name":"block3a_dwconv_res1/depthwise_bn_offset","shape":[288],"dtype":"float32"},{"name":"pass3_block3_mbconv2_detection2_conv1/convolution_bn_offset","shape":[480],"dtype":"float32"},{"name":"block3a_project_conv_res1/convolution_weights","shape":[1,1,288,80],"dtype":"float32"},{"name":"block3a_project_conv_res1/convolution_bn_offset","shape":[80],"dtype":"float32"},{"name":"block3b_expand_conv_res1/convolution_weights","shape":[1,1,80,480],"dtype":"float32"},{"name":"block3b_expand_conv_res1/convolution_bn_offset","shape":[480],"dtype":"float32"},{"name":"block3b_dwconv_res1/depthwise_weights","shape":[5,5,480,1],"dtype":"float32"},{"name":"block3b_dwconv_res1/depthwise_bn_offset","shape":[480],"dtype":"float32"},{"name":"block3b_project_conv_res1/convolution_weights","shape":[1,1,480,80],"dtype":"float32"},{"name":"pass3_block3_mbconv2_detection2_dconv1/depthwise_weights","shape":[5,5,480,1],"dtype":"float32"},{"name":"block3b_project_conv_res1/convolution_bn_offset","shape":[80],"dtype":"float32"},{"name":"block3c_expand_conv_res1/convolution_weights","shape":[1,1,80,480],"dtype":"float32"},{"name":"block3c_expand_conv_res1/convolution_bn_offset","shape":[480],"dtype":"float32"},{"name":"block3c_dwconv_res1/depthwise_weights","shape":[5,5,480,1],"dtype":"float32"},{"name":"block3c_dwconv_res1/depthwise_bn_offset","shape":[480],"dtype":"float32"},{"name":"pass3_block3_mbconv2_detection2_dconv1/depthwise_bn_offset","shape":[480],"dtype":"float32"},{"name":"block3c_project_conv_res1/convolution_weights","shape":[1,1,480,80],"dtype":"float32"},{"name":"block3c_project_conv_res1/convolution_bn_offset","shape":[80],"dtype":"float32"},{"name":"block3d_expand_conv_res1/convolution_weights","shape":[1,1,80,480],"dtype":"float32"},{"name":"block3d_expand_conv_res1/convolution_bn_offset","shape":[480],"dtype":"float32"},{"name":"block3d_dwconv_res1/depthwise_weights","shape":[5,5,480,1],"dtype":"float32"},{"name":"block3d_dwconv_res1/depthwise_bn_offset","shape":[480],"dtype":"float32"},{"name":"block3d_project_conv_res1/convolution_weights","shape":[1,1,480,80],"dtype":"float32"},{"name":"block3d_project_conv_res1/convolution_bn_offset","shape":[80],"dtype":"float32"},{"name":"block3e_expand_conv_res1/convolution_weights","shape":[1,1,80,480],"dtype":"float32"},{"name":"block3e_expand_conv_res1/convolution_bn_offset","shape":[480],"dtype":"float32"},{"name":"block3e_dwconv_res1/depthwise_weights","shape":[5,5,480,1],"dtype":"float32"},{"name":"block3e_dwconv_res1/depthwise_bn_offset","shape":[480],"dtype":"float32"},{"name":"block3e_project_conv_res1/convolution_weights","shape":[1,1,480,80],"dtype":"float32"},{"name":"block3e_project_conv_res1/convolution_bn_offset","shape":[80],"dtype":"float32"},{"name":"block3f_expand_conv_res1/convolution_weights","shape":[1,1,80,480],"dtype":"float32"},{"name":"block3f_expand_conv_res1/convolution_bn_offset","shape":[480],"dtype":"float32"},{"name":"block3f_dwconv_res1/depthwise_weights","shape":[5,5,480,1],"dtype":"float32"},{"name":"block3f_dwconv_res1/depthwise_bn_offset","shape":[480],"dtype":"float32"},{"name":"block3f_project_conv_res1/convolution_weights","shape":[1,1,480,80],"dtype":"float32"},{"name":"block3f_project_conv_res1/convolution_bn_offset","shape":[80],"dtype":"float32"},{"name":"block3g_expand_conv_res1/convolution_weights","shape":[1,1,80,480],"dtype":"float32"},{"name":"pass3_block3_mbconv2_detection2_conv2/convolution_weights","shape":[1,1,480,80],"dtype":"float32"},{"name":"block3g_expand_conv_res1/convolution_bn_offset","shape":[480],"dtype":"float32"},{"name":"block3g_dwconv_res1/depthwise_weights","shape":[5,5,480,1],"dtype":"float32"},{"name":"block3g_dwconv_res1/depthwise_bn_offset","shape":[480],"dtype":"float32"},{"name":"pass3_block3_mbconv2_detection2_conv2/convolution_bn_offset","shape":[80],"dtype":"float32"},{"name":"block3g_project_conv_res1/convolution_weights","shape":[1,1,480,80],"dtype":"float32"},{"name":"block3g_project_conv_res1/convolution_bn_offset","shape":[80],"dtype":"float32"},{"name":"pass1_block1_mbconv1_skeleton_conv1/convolution_weights","shape":[1,1,112,480],"dtype":"float32"},{"name":"pass1_block1_mbconv1_skeleton_conv1/convolution_bn_offset","shape":[480],"dtype":"float32"},{"name":"pass1_block1_mbconv1_skeleton_dconv1/depthwise_weights","shape":[5,5,480,1],"dtype":"float32"},{"name":"pass1_block1_mbconv1_skeleton_dconv1/depthwise_bn_offset","shape":[480],"dtype":"float32"},{"name":"pass3_block3_mbconv3_detection2_conv1/convolution_weights","shape":[1,1,160,480],"dtype":"float32"},{"name":"pass1_block1_mbconv1_skeleton_conv2/convolution_weights","shape":[1,1,480,80],"dtype":"float32"},{"name":"pass3_block3_mbconv3_detection2_conv1/convolution_bn_offset","shape":[480],"dtype":"float32"},{"name":"pass1_block1_mbconv1_skeleton_conv2/convolution_bn_offset","shape":[80],"dtype":"float32"},{"name":"pass1_block1_mbconv2_skeleton_conv1/convolution_weights","shape":[1,1,80,480],"dtype":"float32"},{"name":"pass1_block1_mbconv2_skeleton_conv1/convolution_bn_offset","shape":[480],"dtype":"float32"},{"name":"pass1_block1_mbconv2_skeleton_dconv1/depthwise_weights","shape":[5,5,480,1],"dtype":"float32"},{"name":"pass1_block1_mbconv2_skeleton_dconv1/depthwise_bn_offset","shape":[480],"dtype":"float32"},{"name":"pass1_block1_mbconv2_skeleton_conv2/convolution_weights","shape":[1,1,480,80],"dtype":"float32"},{"name":"pass1_block1_mbconv2_skeleton_conv2/convolution_bn_offset","shape":[80],"dtype":"float32"},{"name":"pass1_block1_mbconv3_skeleton_conv1/convolution_weights","shape":[1,1,160,480],"dtype":"float32"},{"name":"pass3_block3_mbconv3_detection2_dconv1/depthwise_weights","shape":[5,5,480,1],"dtype":"float32"},{"name":"pass1_block1_mbconv3_skeleton_conv1/convolution_bn_offset","shape":[480],"dtype":"float32"},{"name":"pass1_block1_mbconv3_skeleton_dconv1/depthwise_weights","shape":[5,5,480,1],"dtype":"float32"},{"name":"pass1_block1_mbconv3_skeleton_dconv1/depthwise_bn_offset","shape":[480],"dtype":"float32"},{"name":"pass3_block3_mbconv3_detection2_dconv1/depthwise_bn_offset","shape":[480],"dtype":"float32"},{"name":"pass1_block1_mbconv3_skeleton_conv2/convolution_weights","shape":[1,1,480,80],"dtype":"float32"},{"name":"pass1_block1_mbconv3_skeleton_conv2/convolution_bn_offset","shape":[80],"dtype":"float32"},{"name":"pass1_block2_mbconv1_skeleton_conv1/convolution_weights","shape":[1,1,240,480],"dtype":"float32"},{"name":"pass1_block2_mbconv1_skeleton_conv1/convolution_bn_offset","shape":[480],"dtype":"float32"},{"name":"pass1_block2_mbconv1_skeleton_dconv1/depthwise_weights","shape":[5,5,480,1],"dtype":"float32"},{"name":"pass1_block2_mbconv1_skeleton_dconv1/depthwise_bn_offset","shape":[480],"dtype":"float32"},{"name":"pass1_block2_mbconv1_skeleton_conv2/convolution_weights","shape":[1,1,480,80],"dtype":"float32"},{"name":"pass1_block2_mbconv1_skeleton_conv2/convolution_bn_offset","shape":[80],"dtype":"float32"},{"name":"pass1_block2_mbconv2_skeleton_conv1/convolution_weights","shape":[1,1,80,480],"dtype":"float32"},{"name":"pass1_block2_mbconv2_skeleton_conv1/convolution_bn_offset","shape":[480],"dtype":"float32"},{"name":"pass1_block2_mbconv2_skeleton_dconv1/depthwise_weights","shape":[5,5,480,1],"dtype":"float32"},{"name":"pass1_block2_mbconv2_skeleton_dconv1/depthwise_bn_offset","shape":[480],"dtype":"float32"},{"name":"pass1_block2_mbconv2_skeleton_conv2/convolution_weights","shape":[1,1,480,80],"dtype":"float32"},{"name":"pass1_block2_mbconv2_skeleton_conv2/convolution_bn_offset","shape":[80],"dtype":"float32"},{"name":"pass1_block2_mbconv3_skeleton_conv1/convolution_weights","shape":[1,1,160,480],"dtype":"float32"},{"name":"pass1_block2_mbconv3_skeleton_conv1/convolution_bn_offset","shape":[480],"dtype":"float32"},{"name":"pass1_block2_mbconv3_skeleton_dconv1/depthwise_weights","shape":[5,5,480,1],"dtype":"float32"},{"name":"pass1_block2_mbconv3_skeleton_dconv1/depthwise_bn_offset","shape":[480],"dtype":"float32"},{"name":"pass1_block2_mbconv3_skeleton_conv2/convolution_weights","shape":[1,1,480,80],"dtype":"float32"},{"name":"pass1_block2_mbconv3_skeleton_conv2/convolution_bn_offset","shape":[80],"dtype":"float32"},{"name":"pass1_block3_mbconv1_skeleton_conv1/convolution_weights","shape":[1,1,240,480],"dtype":"float32"},{"name":"pass1_block3_mbconv1_skeleton_conv1/convolution_bn_offset","shape":[480],"dtype":"float32"},{"name":"pass1_block3_mbconv1_skeleton_dconv1/depthwise_weights","shape":[5,5,480,1],"dtype":"float32"},{"name":"pass1_block3_mbconv1_skeleton_dconv1/depthwise_bn_offset","shape":[480],"dtype":"float32"},{"name":"pass3_block3_mbconv3_detection2_conv2/convolution_weights","shape":[1,1,480,80],"dtype":"float32"},{"name":"pass1_block3_mbconv1_skeleton_conv2/convolution_weights","shape":[1,1,480,80],"dtype":"float32"},{"name":"pass3_block3_mbconv3_detection2_conv2/convolution_bn_offset","shape":[80],"dtype":"float32"},{"name":"pass1_block3_mbconv1_skeleton_conv2/convolution_bn_offset","shape":[80],"dtype":"float32"},{"name":"pass1_block3_mbconv2_skeleton_conv1/convolution_weights","shape":[1,1,80,480],"dtype":"float32"},{"name":"pass1_block3_mbconv2_skeleton_conv1/convolution_bn_offset","shape":[480],"dtype":"float32"},{"name":"pass1_block3_mbconv2_skeleton_dconv1/depthwise_weights","shape":[5,5,480,1],"dtype":"float32"},{"name":"pass1_block3_mbconv2_skeleton_dconv1/depthwise_bn_offset","shape":[480],"dtype":"float32"},{"name":"pass1_block3_mbconv2_skeleton_conv2/convolution_weights","shape":[1,1,480,80],"dtype":"float32"},{"name":"pass3_block4_mbconv1_detection2_conv1/convolution_weights","shape":[1,1,240,480],"dtype":"float32"},{"name":"pass1_block3_mbconv2_skeleton_conv2/convolution_bn_offset","shape":[80],"dtype":"float32"},{"name":"pass1_block3_mbconv3_skeleton_conv1/convolution_weights","shape":[1,1,160,480],"dtype":"float32"},{"name":"pass1_block3_mbconv3_skeleton_conv1/convolution_bn_offset","shape":[480],"dtype":"float32"},{"name":"pass1_block3_mbconv3_skeleton_dconv1/depthwise_weights","shape":[5,5,480,1],"dtype":"float32"},{"name":"pass1_block3_mbconv3_skeleton_dconv1/depthwise_bn_offset","shape":[480],"dtype":"float32"},{"name":"pass3_block4_mbconv1_detection2_conv1/convolution_bn_offset","shape":[480],"dtype":"float32"},{"name":"pass1_block3_mbconv3_skeleton_conv2/convolution_weights","shape":[1,1,480,80],"dtype":"float32"},{"name":"pass1_block3_mbconv3_skeleton_conv2/convolution_bn_offset","shape":[80],"dtype":"float32"},{"name":"pass1_block4_mbconv1_skeleton_conv1/convolution_weights","shape":[1,1,240,480],"dtype":"float32"},{"name":"pass1_block4_mbconv1_skeleton_conv1/convolution_bn_offset","shape":[480],"dtype":"float32"},{"name":"pass1_block4_mbconv1_skeleton_dconv1/depthwise_weights","shape":[5,5,480,1],"dtype":"float32"},{"name":"pass1_block4_mbconv1_skeleton_dconv1/depthwise_bn_offset","shape":[480],"dtype":"float32"},{"name":"pass3_block4_mbconv1_detection2_dconv1/depthwise_weights","shape":[5,5,480,1],"dtype":"float32"},{"name":"pass1_block4_mbconv1_skeleton_conv2/convolution_weights","shape":[1,1,480,80],"dtype":"float32"},{"name":"pass1_block4_mbconv1_skeleton_conv2/convolution_bn_offset","shape":[80],"dtype":"float32"},{"name":"pass1_block4_mbconv2_skeleton_conv1/convolution_weights","shape":[1,1,80,480],"dtype":"float32"},{"name":"pass3_block4_mbconv1_detection2_dconv1/depthwise_bn_offset","shape":[480],"dtype":"float32"},{"name":"pass1_block4_mbconv2_skeleton_conv1/convolution_bn_offset","shape":[480],"dtype":"float32"},{"name":"pass1_block4_mbconv2_skeleton_dconv1/depthwise_weights","shape":[5,5,480,1],"dtype":"float32"},{"name":"pass1_block4_mbconv2_skeleton_dconv1/depthwise_bn_offset","shape":[480],"dtype":"float32"},{"name":"pass1_block4_mbconv2_skeleton_conv2/convolution_weights","shape":[1,1,480,80],"dtype":"float32"},{"name":"pass1_block4_mbconv2_skeleton_conv2/convolution_bn_offset","shape":[80],"dtype":"float32"},{"name":"pass1_block4_mbconv3_skeleton_conv1/convolution_weights","shape":[1,1,160,480],"dtype":"float32"},{"name":"pass1_block4_mbconv3_skeleton_conv1/convolution_bn_offset","shape":[480],"dtype":"float32"},{"name":"pass1_block4_mbconv3_skeleton_dconv1/depthwise_weights","shape":[5,5,480,1],"dtype":"float32"},{"name":"pass1_block4_mbconv3_skeleton_dconv1/depthwise_bn_offset","shape":[480],"dtype":"float32"},{"name":"pass1_block4_mbconv3_skeleton_conv2/convolution_weights","shape":[1,1,480,80],"dtype":"float32"},{"name":"pass1_block4_mbconv3_skeleton_conv2/convolution_bn_offset","shape":[80],"dtype":"float32"},{"name":"pass2_block1_mbconv1_detection1_conv1/convolution_weights","shape":[1,1,352,480],"dtype":"float32"},{"name":"pass2_block1_mbconv1_detection1_conv1/convolution_bn_offset","shape":[480],"dtype":"float32"},{"name":"pass2_block1_mbconv1_detection1_dconv1/depthwise_weights","shape":[5,5,480,1],"dtype":"float32"},{"name":"pass2_block1_mbconv1_detection1_dconv1/depthwise_bn_offset","shape":[480],"dtype":"float32"},{"name":"pass2_block1_mbconv1_detection1_conv2/convolution_weights","shape":[1,1,480,80],"dtype":"float32"},{"name":"pass2_block1_mbconv1_detection1_conv2/convolution_bn_offset","shape":[80],"dtype":"float32"},{"name":"pass2_block1_mbconv2_detection1_conv1/convolution_weights","shape":[1,1,80,480],"dtype":"float32"},{"name":"pass2_block1_mbconv2_detection1_conv1/convolution_bn_offset","shape":[480],"dtype":"float32"},{"name":"pass2_block1_mbconv2_detection1_dconv1/depthwise_weights","shape":[5,5,480,1],"dtype":"float32"},{"name":"pass2_block1_mbconv2_detection1_dconv1/depthwise_bn_offset","shape":[480],"dtype":"float32"},{"name":"pass2_block1_mbconv2_detection1_conv2/convolution_weights","shape":[1,1,480,80],"dtype":"float32"},{"name":"pass3_block4_mbconv1_detection2_conv2/convolution_weights","shape":[1,1,480,80],"dtype":"float32"},{"name":"pass2_block1_mbconv2_detection1_conv2/convolution_bn_offset","shape":[80],"dtype":"float32"},{"name":"pass2_block1_mbconv3_detection1_conv1/convolution_weights","shape":[1,1,160,480],"dtype":"float32"},{"name":"pass2_block1_mbconv3_detection1_conv1/convolution_bn_offset","shape":[480],"dtype":"float32"},{"name":"pass2_block1_mbconv3_detection1_dconv1/depthwise_weights","shape":[5,5,480,1],"dtype":"float32"},{"name":"pass2_block1_mbconv3_detection1_dconv1/depthwise_bn_offset","shape":[480],"dtype":"float32"},{"name":"pass3_block4_mbconv1_detection2_conv2/convolution_bn_offset","shape":[80],"dtype":"float32"},{"name":"pass2_block1_mbconv3_detection1_conv2/convolution_weights","shape":[1,1,480,80],"dtype":"float32"},{"name":"pass3_block4_mbconv2_detection2_conv1/convolution_weights","shape":[1,1,80,480],"dtype":"float32"},{"name":"pass2_block1_mbconv3_detection1_conv2/convolution_bn_offset","shape":[80],"dtype":"float32"},{"name":"pass2_block2_mbconv1_detection1_conv1/convolution_weights","shape":[1,1,240,480],"dtype":"float32"},{"name":"pass2_block2_mbconv1_detection1_conv1/convolution_bn_offset","shape":[480],"dtype":"float32"},{"name":"pass2_block2_mbconv1_detection1_dconv1/depthwise_weights","shape":[5,5,480,1],"dtype":"float32"},{"name":"pass2_block2_mbconv1_detection1_dconv1/depthwise_bn_offset","shape":[480],"dtype":"float32"},{"name":"pass3_block4_mbconv2_detection2_conv1/convolution_bn_offset","shape":[480],"dtype":"float32"},{"name":"pass2_block2_mbconv1_detection1_conv2/convolution_weights","shape":[1,1,480,80],"dtype":"float32"},{"name":"pass2_block2_mbconv1_detection1_conv2/convolution_bn_offset","shape":[80],"dtype":"float32"},{"name":"pass2_block2_mbconv2_detection1_conv1/convolution_weights","shape":[1,1,80,480],"dtype":"float32"},{"name":"pass2_block2_mbconv2_detection1_conv1/convolution_bn_offset","shape":[480],"dtype":"float32"},{"name":"pass2_block2_mbconv2_detection1_dconv1/depthwise_weights","shape":[5,5,480,1],"dtype":"float32"},{"name":"pass2_block2_mbconv2_detection1_dconv1/depthwise_bn_offset","shape":[480],"dtype":"float32"},{"name":"pass3_block4_mbconv2_detection2_dconv1/depthwise_weights","shape":[5,5,480,1],"dtype":"float32"},{"name":"pass2_block2_mbconv2_detection1_conv2/convolution_weights","shape":[1,1,480,80],"dtype":"float32"},{"name":"pass2_block2_mbconv2_detection1_conv2/convolution_bn_offset","shape":[80],"dtype":"float32"},{"name":"pass2_block2_mbconv3_detection1_conv1/convolution_weights","shape":[1,1,160,480],"dtype":"float32"},{"name":"pass3_block4_mbconv2_detection2_dconv1/depthwise_bn_offset","shape":[480],"dtype":"float32"},{"name":"pass2_block2_mbconv3_detection1_conv1/convolution_bn_offset","shape":[480],"dtype":"float32"},{"name":"pass2_block2_mbconv3_detection1_dconv1/depthwise_weights","shape":[5,5,480,1],"dtype":"float32"},{"name":"pass2_block2_mbconv3_detection1_dconv1/depthwise_bn_offset","shape":[480],"dtype":"float32"},{"name":"pass2_block2_mbconv3_detection1_conv2/convolution_weights","shape":[1,1,480,80],"dtype":"float32"},{"name":"pass2_block2_mbconv3_detection1_conv2/convolution_bn_offset","shape":[80],"dtype":"float32"},{"name":"pass2_block3_mbconv1_detection1_conv1/convolution_weights","shape":[1,1,240,480],"dtype":"float32"},{"name":"pass2_block3_mbconv1_detection1_conv1/convolution_bn_offset","shape":[480],"dtype":"float32"},{"name":"pass2_block3_mbconv1_detection1_dconv1/depthwise_weights","shape":[5,5,480,1],"dtype":"float32"},{"name":"pass2_block3_mbconv1_detection1_dconv1/depthwise_bn_offset","shape":[480],"dtype":"float32"},{"name":"pass2_block3_mbconv1_detection1_conv2/convolution_weights","shape":[1,1,480,80],"dtype":"float32"},{"name":"pass2_block3_mbconv1_detection1_conv2/convolution_bn_offset","shape":[80],"dtype":"float32"},{"name":"pass2_block3_mbconv2_detection1_conv1/convolution_weights","shape":[1,1,80,480],"dtype":"float32"},{"name":"pass2_block3_mbconv2_detection1_conv1/convolution_bn_offset","shape":[480],"dtype":"float32"},{"name":"pass2_block3_mbconv2_detection1_dconv1/depthwise_weights","shape":[5,5,480,1],"dtype":"float32"},{"name":"pass2_block3_mbconv2_detection1_dconv1/depthwise_bn_offset","shape":[480],"dtype":"float32"},{"name":"pass2_block3_mbconv2_detection1_conv2/convolution_weights","shape":[1,1,480,80],"dtype":"float32"},{"name":"pass2_block3_mbconv2_detection1_conv2/convolution_bn_offset","shape":[80],"dtype":"float32"},{"name":"pass2_block3_mbconv3_detection1_conv1/convolution_weights","shape":[1,1,160,480],"dtype":"float32"},{"name":"pass2_block3_mbconv3_detection1_conv1/convolution_bn_offset","shape":[480],"dtype":"float32"},{"name":"pass2_block3_mbconv3_detection1_dconv1/depthwise_weights","shape":[5,5,480,1],"dtype":"float32"},{"name":"pass2_block3_mbconv3_detection1_dconv1/depthwise_bn_offset","shape":[480],"dtype":"float32"},{"name":"pass2_block3_mbconv3_detection1_conv2/convolution_weights","shape":[1,1,480,80],"dtype":"float32"},{"name":"pass3_block4_mbconv2_detection2_conv2/convolution_weights","shape":[1,1,480,80],"dtype":"float32"},{"name":"pass2_block3_mbconv3_detection1_conv2/convolution_bn_offset","shape":[80],"dtype":"float32"},{"name":"pass2_block4_mbconv1_detection1_conv1/convolution_weights","shape":[1,1,240,480],"dtype":"float32"},{"name":"pass2_block4_mbconv1_detection1_conv1/convolution_bn_offset","shape":[480],"dtype":"float32"},{"name":"pass2_block4_mbconv1_detection1_dconv1/depthwise_weights","shape":[5,5,480,1],"dtype":"float32"},{"name":"pass2_block4_mbconv1_detection1_dconv1/depthwise_bn_offset","shape":[480],"dtype":"float32"},{"name":"pass3_block4_mbconv2_detection2_conv2/convolution_bn_offset","shape":[80],"dtype":"float32"},{"name":"pass2_block4_mbconv1_detection1_conv2/convolution_weights","shape":[1,1,480,80],"dtype":"float32"},{"name":"pass2_block4_mbconv1_detection1_conv2/convolution_bn_offset","shape":[80],"dtype":"float32"},{"name":"pass2_block4_mbconv2_detection1_conv1/convolution_weights","shape":[1,1,80,480],"dtype":"float32"},{"name":"pass3_block4_mbconv3_detection2_conv1/convolution_weights","shape":[1,1,160,480],"dtype":"float32"},{"name":"pass2_block4_mbconv2_detection1_conv1/convolution_bn_offset","shape":[480],"dtype":"float32"},{"name":"pass2_block4_mbconv2_detection1_dconv1/depthwise_weights","shape":[5,5,480,1],"dtype":"float32"},{"name":"pass2_block4_mbconv2_detection1_dconv1/depthwise_bn_offset","shape":[480],"dtype":"float32"},{"name":"pass3_block4_mbconv3_detection2_conv1/convolution_bn_offset","shape":[480],"dtype":"float32"},{"name":"pass2_block4_mbconv2_detection1_conv2/convolution_weights","shape":[1,1,480,80],"dtype":"float32"},{"name":"pass2_block4_mbconv2_detection1_conv2/convolution_bn_offset","shape":[80],"dtype":"float32"},{"name":"pass2_block4_mbconv3_detection1_conv1/convolution_weights","shape":[1,1,160,480],"dtype":"float32"},{"name":"pass2_block4_mbconv3_detection1_conv1/convolution_bn_offset","shape":[480],"dtype":"float32"},{"name":"pass2_block4_mbconv3_detection1_dconv1/depthwise_weights","shape":[5,5,480,1],"dtype":"float32"},{"name":"pass2_block4_mbconv3_detection1_dconv1/depthwise_bn_offset","shape":[480],"dtype":"float32"},{"name":"pass2_block4_mbconv3_detection1_conv2/convolution_weights","shape":[1,1,480,80],"dtype":"float32"},{"name":"pass3_block4_mbconv3_detection2_dconv1/depthwise_weights","shape":[5,5,480,1],"dtype":"float32"},{"name":"pass2_block4_mbconv3_detection1_conv2/convolution_bn_offset","shape":[80],"dtype":"float32"},{"name":"pass3_block1_mbconv1_detection2_conv1/convolution_weights","shape":[1,1,352,480],"dtype":"float32"},{"name":"pass3_block1_mbconv1_detection2_conv1/convolution_bn_offset","shape":[480],"dtype":"float32"},{"name":"pass3_block1_mbconv1_detection2_dconv1/depthwise_weights","shape":[5,5,480,1],"dtype":"float32"},{"name":"pass3_block1_mbconv1_detection2_dconv1/depthwise_bn_offset","shape":[480],"dtype":"float32"},{"name":"pass3_block4_mbconv3_detection2_dconv1/depthwise_bn_offset","shape":[480],"dtype":"float32"},{"name":"pass3_block1_mbconv1_detection2_conv2/convolution_weights","shape":[1,1,480,80],"dtype":"float32"},{"name":"pass3_block1_mbconv1_detection2_conv2/convolution_bn_offset","shape":[80],"dtype":"float32"},{"name":"pass3_block1_mbconv2_detection2_conv1/convolution_weights","shape":[1,1,80,480],"dtype":"float32"},{"name":"pass3_block1_mbconv2_detection2_conv1/convolution_bn_offset","shape":[480],"dtype":"float32"},{"name":"pass3_block1_mbconv2_detection2_dconv1/depthwise_weights","shape":[5,5,480,1],"dtype":"float32"},{"name":"pass3_block1_mbconv2_detection2_dconv1/depthwise_bn_offset","shape":[480],"dtype":"float32"},{"name":"pass3_block1_mbconv2_detection2_conv2/convolution_weights","shape":[1,1,480,80],"dtype":"float32"},{"name":"pass3_block1_mbconv2_detection2_conv2/convolution_bn_offset","shape":[80],"dtype":"float32"},{"name":"pass3_block1_mbconv3_detection2_conv1/convolution_weights","shape":[1,1,160,480],"dtype":"float32"},{"name":"pass3_block1_mbconv3_detection2_conv1/convolution_bn_offset","shape":[480],"dtype":"float32"},{"name":"pass3_block1_mbconv3_detection2_dconv1/depthwise_weights","shape":[5,5,480,1],"dtype":"float32"},{"name":"pass3_block1_mbconv3_detection2_dconv1/depthwise_bn_offset","shape":[480],"dtype":"float32"},{"name":"pass3_block1_mbconv3_detection2_conv2/convolution_weights","shape":[1,1,480,80],"dtype":"float32"},{"name":"pass3_block1_mbconv3_detection2_conv2/convolution_bn_offset","shape":[80],"dtype":"float32"},{"name":"pass3_block2_mbconv1_detection2_conv1/convolution_weights","shape":[1,1,240,480],"dtype":"float32"},{"name":"pass3_block2_mbconv1_detection2_conv1/convolution_bn_offset","shape":[480],"dtype":"float32"},{"name":"pass3_block2_mbconv1_detection2_dconv1/depthwise_weights","shape":[5,5,480,1],"dtype":"float32"},{"name":"pass3_block2_mbconv1_detection2_dconv1/depthwise_bn_offset","shape":[480],"dtype":"float32"},{"name":"pass3_block2_mbconv1_detection2_conv2/convolution_weights","shape":[1,1,480,80],"dtype":"float32"},{"name":"pass3_block2_mbconv1_detection2_conv2/convolution_bn_offset","shape":[80],"dtype":"float32"},{"name":"pass3_block2_mbconv2_detection2_conv1/convolution_weights","shape":[1,1,80,480],"dtype":"float32"},{"name":"pass3_block4_mbconv3_detection2_conv2/convolution_weights","shape":[1,1,480,80],"dtype":"float32"},{"name":"pass3_block2_mbconv2_detection2_conv1/convolution_bn_offset","shape":[480],"dtype":"float32"},{"name":"pass3_block2_mbconv2_detection2_dconv1/depthwise_weights","shape":[5,5,480,1],"dtype":"float32"},{"name":"pass3_block2_mbconv2_detection2_dconv1/depthwise_bn_offset","shape":[480],"dtype":"float32"},{"name":"pass3_block4_mbconv3_detection2_conv2/convolution_bn_offset","shape":[80],"dtype":"float32"},{"name":"pass3_block2_mbconv2_detection2_conv2/convolution_weights","shape":[1,1,480,80],"dtype":"float32"},{"name":"pass3_block2_mbconv2_detection2_conv2/convolution_bn_offset","shape":[80],"dtype":"float32"}]
      }
  ]
}